brewing/models/acb-2.pth (torch_old, 277278 bytes, 51 tensors)

embeds.0.weight f4 [457, 2]
000000 af 95 19 3a 24 f1 77 bb 9b aa 7c 3d d3 c6 57 bc
       0.00058587914 -0.003783294 0.06168614 -0.013169962
000010 da a7 17 be 36 d6 32 be 0a 9c 09 be ab 79 02 be
       -0.14810124 -0.17464527 -0.1343843 -0.12741725
000020 20 4d 02 be aa 73 68 bd ce da e3 bd 94 7f 0d bd
       -0.12724733 -0.05675093 -0.11125718 -0.034545496
000030 a3 ea f1 3d c5 6a 96 3e 75 b4 a7 bd 82 05 13 bd
       0.118123315 0.29378334 -0.08188716 -0.035893925
000040 68 ca 40 be 33 8c 18 be 1e 0e 4f be 0c b2 1a bd
       -0.18827212 -0.14897232 -0.20220229 -0.037767455
000050 6b bd 5f ba 8e 11 ea 3c 37 7d ae bd 5b 2e 00 be
       -0.00085350004 0.028572824 -0.085199766 -0.12517683
000060 fc d3 7c bc 47 49 85 bd fd 80 82 bd 99 6d 08 bd
       -0.0154314 -0.06508117 -0.06372259 -0.033307645
000070 23 ef 5d bd f5 03 22 be 80 17 11 be 7b 30 fc bd
       -0.054183137 -0.15821822 -0.14169121 -0.123139344
000080 25 2d c0 3a ad 74 fa bd 45 37 11 be 45 4c 4b be
       0.0014661892 -0.122292854 -0.1418124 -0.19853313
000090 83 68 a7 bc 40 57 63 3d 50 2f 46 3d 51 56 04 3d
       -0.020435577 0.05550313 0.048384964 0.03230888
0000a0 b2 62 09 be 75 4e 06 be 0c ff 2d 3e 93 d8 36 3e
       -0.13416556 -0.13115866 0.16991824 0.17856054
0000b0 84 2f e5 ba 38 2c 17 bd 29 ef 88 3a e5 aa b6 bc
       -0.0017485474 -0.036907405 0.0010447252 -0.022298286
0000c0 c6 70 4b be df 75 25 be e9 d2 b2 3d 79 06 cf 3d
       -0.19867238 -0.16158246 0.08731634 0.101086564
0000d0 97 50 78 bd 46 58 08 bd 4f 3f a8 bd e6 c6 ab bd
       -0.06062373 -0.03328731 -0.082152 -0.08387546
0000e0 6b fa e5 bd 48 80 39 bd ed a6 a4 3d 3f 2a bb bd
       -0.11229404 -0.045288354 0.08039651 -0.09138917
0000f0 91 cb a7 bd 6f ce 60 bd d9 81 ab bd 6a 28 69 bd
       -0.08193124 -0.05488437 -0.08374376 -0.056923307
000100 0d c3 22 bc 14 a8 a9 3d e0 06 ae bc a1 c5 d0 bd
       -0.009934199 0.082840115 -0.021243513 -0.10193945
000110 54 e3 1d be 73 b1 0d be f2 6c 2e 3e 39 06 07 3e
       -0.1541875 -0.13837223 0.17033747 0.13185968
000120 5f b8 31 3e a2 11 3d 3e 4a 9f d3 3d ac 43 cc 3d
       0.17355488 0.18463758 0.10333116 0.09973845
000130 f4 62 50 3e f4 90 4b 3e 02 41 e0 bc 6c 29 db bc
       0.20350248 0.19879514 -0.027374748 -0.02675315
000140 6b 90 fd bd da e5 a4 bd 17 9f 88 bd 12 8b 9e bc
       -0.12381061 -0.08051653 -0.06670969 -0.019353423
000150 fd 10 98 bd 4f 27 27 be 2f c0 b8 bd ed 02 c7 bd
       -0.07425115 -0.16323589 -0.09021031 -0.09717355
000160 c9 8a 9f bd 1c 7a f3 bd 6f d3 23 3e 16 ad 56 3e
       -0.07790143 -0.11888525 0.15998624 0.20964465
000170 a1 00 ec 3c 34 18 82 3d 64 a0 11 bd ef d6 5d 3c
       0.028808894 0.06352273 -0.03555335 0.013540014
000180 0d 83 43 be 72 65 e6 bd 7b ad 38 bd b1 b0 df bd
       -0.1909296 -0.11249818 -0.04508732 -0.10922373
000190 38 05 00 be 54 8c c1 bd d7 2e 74 bd dc f8 27 bd
       -0.12501991 -0.094505936 -0.059614982 -0.041008815
0001a0 4e 53 3b be 94 76 82 be 65 c1 f6 bd 68 e7 fc bd
       -0.18293497 -0.25481093 -0.12048606 -0.12348825
0001b0 14 c9 bf 3d bf f5 85 bc fc 34 9e 3d fd 1b 02 3d
       0.093645245 -0.016352532 0.0772495 0.031764973
0001c0 cc b8 54 be 5e f8 b6 bd d7 f1 7e 3d 78 8b 3c bd
       -0.2077362 -0.08934091 0.062242355 -0.046031445
0001d0 87 88 f7 3d 6a cb 33 3e 84 86 e5 bd 11 47 30 be
       0.120865874 0.17558065 -0.112072974 -0.1721461
0001e0 64 02 98 3c 28 7e b2 3d e6 d1 e1 3a e5 b5 48 bd
       0.018555827 0.08715469 0.0017228692 -0.049001593
0001f0 b7 ab b0 bd 7f f1 21 bd e1 b1 ea bd ff 7f 18 be
       -0.08626502 -0.03953695 -0.11459709 -0.14892577
000200 94 4c f2 bc 51 72 b0 bc bc f2 a6 3d f5 24 7a bd
       -0.02957753 -0.021538885 0.08151767 -0.0610704
000210 ca b0 53 bc 4c 16 68 bd 28 ec ed bd 71 e3 ad bd
       -0.012920568 -0.05666189 -0.11617309 -0.08490647
000220 d9 d6 6e bd bd 44 ab bc 07 62 93 3d 36 c5 ed bb
       -0.058310363 -0.0209068 0.071964316 -0.0072561754
000230 85 ac 32 3c 83 89 ea bc 8c f9 63 bc ee 24 1d 3e
       0.01090539 -0.028630024 -0.013914477 0.15346119
000240 d0 2e e1 bd d8 d3 f9 bd ac 9c da bd bd 75 cf bd
       -0.10995257 -0.12198609 -0.10674414 -0.10129879
000250 7e 18 72 3d 17 19 96 3b 44 3d 7f 3d d8 e5 b3 3d
       0.05910539 0.0045806277 0.062314287 0.087840736
000260 66 6a 0c be 2f f5 03 be f1 c3 23 be 7f fe 0f be
       -0.13712463 -0.12886499 -0.15992714 -0.14061926
000270 47 23 12 bd b7 db 64 ba 9f 0e 46 bd f4 8b 9c 3a
       -0.035678174 -0.000873025 -0.048353788 0.0011943565
000280 3d 19 ff bd a5 a6 2e be b0 3a 75 3c af ec 8f 3d
       -0.12455986 -0.17055757 0.0149676055 0.07027566
000290 cd c3 0c be 44 b3 f1 bd ee 94 7f bd 30 dd ca bd
       -0.13746567 -0.1180177 -0.06239789 -0.099054694
0002a0 38 9b 0a bd 67 2a 6f bd 1d 23 cb bd ce 95 ee bc
       -0.033839434 -0.058390047 -0.09918807 -0.029124167
0002b0 e5 40 ba 3c 86 0f a7 3c 43 ba 03 be db 64 03 be
       0.022736022 0.020393144 -0.12864022 -0.12831442
0002c0 d2 e9 d9 bc de eb ab 3d c1 e4 fd bd c8 cf 9b bd
       -0.026600752 0.083945975 -0.12397147 -0.076079905
0002d0 a0 89 ea 3d a0 4b e0 3d 69 f6 8e bd 0f 2c 1e bd
       0.11452031 0.10951924 -0.06980593 -0.038616236
0002e0 de e5 da 3c 67 79 e3 bc d3 8f 18 bd df 8a c2 bd
       0.026720937 -0.02776785 -0.037246536 -0.09499144
0002f0 ed 63 74 bd 61 48 b6 bd b6 62 24 bd b9 2a 39 be
       -0.05966561 -0.08900524 -0.0401332 -0.18082704
000300 e0 67 a4 bd f8 e7 54 bd c5 56 78 3c a7 ad 95 3d
       -0.08027625 -0.051979035 0.015157406 0.07308512
000310 a7 58 56 bc e1 c4 9c bc 11 46 c4 bd 35 77 c9 bd
       -0.01308266 -0.019136848 -0.095836766 -0.0983719
000320 96 61 3a 3c 00 aa 2d bd 98 93 c9 bd d8 6c fe bd
       0.011375805 -0.042398453 -0.098426044 -0.12423104
000330 c6 8f 2d be 87 69 4d be 59 11 08 be b5 6c dc bd
       -0.16949376 -0.20059787 -0.13287868 -0.10762922
000340 67 03 ae 3c 24 05 05 bc ea ed 27 3e d6 74 b5 bb
       0.021241857 -0.008118901 0.16399351 -0.0055376096
000350 9f 48 c8 bd 61 7f 43 be eb 62 8f bd ff 82 95 bd
       -0.097794764 -0.1909156 -0.07001289 -0.07300376
000360 32 c0 17 3d e8 88 b3 3b 5b 92 11 be 13 7a e4 bd
       0.037048526 0.005478967 -0.14215986 -0.11156096
000370 10 eb cc bd 46 3a de bd e3 bd 4a bd dd 6d ac bd
       -0.10005772 -0.108509585 -0.049497496 -0.08419392
000380 98 12 b1 3d fe 88 d7 3d 19 24 1d 3e 6d 1e 15 3e
       0.086461246 0.10524176 0.15345801 0.14562388
000390 50 be bd 3d f2 8c 41 be ed 91 6e 3e ba f8 46 3e
       0.09264815 -0.18901423 0.23297854 0.19430819
0003a0 69 00 6c 3c 0b 34 bb 3d ac a7 c9 3d 79 32 1a 3c
       0.014404395 0.09140786 0.09846434 0.009411448
0003b0 e5 ed 03 be 72 38 25 be 30 26 20 bd 0e 93 8e bd
       -0.12883718 -0.16134813 -0.03909892 -0.06961642
0003c0 07 2a 35 3e 93 48 3e 3e 5b 15 c1 bd f3 bf be bc
       0.17691813 0.18582372 -0.09427901 -0.023284888
0003d0 cf 75 e6 bd db 29 1a be 46 5a 94 3d 4e e6 d9 3d
       -0.11252939 -0.15055029 0.07243781 0.1063963
0003e0 e7 7f 24 bd 7a ee 62 be 7f 4c 84 bd 4c 89 35 bd
       -0.04016104 -0.22161284 -0.06459903 -0.04432039
0003f0 71 6f b3 bc 67 e7 30 be 21 47 49 be 32 51 21 be
       -0.021903725 -0.17275773 -0.1965604 -0.1575363

embeds.1.weight f4 [100, 5]
000000 82 e2 13 3b 5c 4a 1a 3c 5a 0c e0 39 8c 5d f4 3b
       0.002256543 0.009417143 0.00042733812 0.0074574407
000010 ae be 93 3b 34 9b 24 3e 73 66 ab bc 4c ee cb 3d
       0.004508815 0.1607483 -0.020922875 0.09957561
000020 47 d7 fb bc 24 06 0e 3e 66 16 30 3e ad f6 52 3e
       -0.0307423 0.1386953 0.17196044 0.20601912
000030 c8 98 4c bc 49 67 cf 3c b1 c3 30 3e b1 4e 6f bd
       -0.012487598 0.025317805 0.1726215 -0.058424655
000040 58 66 6c bd 55 85 a6 bc 47 17 bc 3b ae 1a c8 bd
       -0.05771479 -0.02032725 0.0057400796 -0.09770714
000050 b8 a8 0d 3d 36 14 e5 3d 4f f6 96 3d a1 fb 5f bd
       0.03458473 0.111854956 0.073711984 -0.05468333
000060 32 94 10 3b 83 96 01 3d c3 8a 9e 3c 8f 2c ab bc
       0.0022060988 0.03163768 0.019353276 -0.02089527
000070 91 e1 e6 3d f9 8f 13 3d d0 c9 13 bd 1e 96 0a 3c
       0.11273492 0.036025975 -0.036081135 0.008458642
000080 5d 64 24 bd 93 94 e8 3c 78 41 1b bd 0f b5 46 3e
       -0.040134776 0.028391158 -0.037904233 0.19405006
000090 e0 a3 1b 3d 53 b3 6c 3d 90 b9 d8 3c be fd 4b 3e
       0.03799808 0.057788204 0.02645567 0.19921014
0000a0 be 70 34 3e 37 d4 0d 3d 71 3a 57 bd b2 90 aa bc
       0.17621133 0.034626212 -0.05254597 -0.02082095
0000b0 fe 94 f4 bc 27 19 a2 bd 1d 56 0c bd 91 70 7e bc
       -0.029856201 -0.07914954 -0.03426181 -0.015529768
0000c0 b2 6a dc bd 9c 41 62 bd 3a 8e 3b 3e 0d 0a 4b 3a
       -0.10762538 -0.05523835 0.18315974 0.0007745333
0000d0 be 86 82 3d e4 bb cf 3c 76 84 18 3e 62 2e 8d 3d
       0.06373356 0.025358148 0.1489428 0.068936124
0000e0 e2 6b 80 3c 48 a3 b3 3d ab 74 8d bd 51 45 4f 3d
       0.015676443 0.08771378 -0.06907018 0.050603215
0000f0 1c 86 c7 3d 69 98 85 3d 00 aa c7 3d 90 97 58 be
       0.09742376 0.065232106 0.09749222 -0.21151567
000100 a7 e5 1c 3d 67 94 b9 bc 15 34 d5 3c 7e ef f4 3d
       0.03830495 -0.022653772 0.026025811 0.11959742
000110 aa a3 f6 3c f7 1f c4 bc 9e ff 18 be 03 f9 db bd
       0.030107338 -0.023941023 -0.1494126 -0.107408546
000120 ee fd f3 bd 22 84 d1 3d e5 7f b6 bd a9 15 34 3d
       -0.119136676 0.102302805 -0.08911113 0.04396597
000130 dd 6b 8e 3d 61 41 d5 3d 05 1c c1 3c 1e cc 26 3d
       0.06954167 0.10412861 0.023572931 0.040722005
000140 2a 03 36 3d 26 3f e8 3c 24 8a b9 3c df 2b a9 bc
       0.04443661 0.028350424 0.022648878 -0.020650802
000150 9a 21 57 3d 87 f1 cf 3d 25 06 30 3d 3b 61 e1 3d
       0.05252228 0.101534896 0.04297461 0.11004873
000160 7d 99 eb bd 81 94 db 3d f5 38 6c bc fc 40 b6 3c
       -0.11503885 0.10721684 -0.0144178765 0.022247784
000170 8f f5 19 bc d7 48 8c bd 09 66 0e bd 50 64 c4 bc
       -0.009396925 -0.068498306 -0.034765277 -0.023973614
000180 8b f9 9f ba 7a d1 08 bc 11 3b 22 bd b9 c7 a9 bd
       -0.0012205107 -0.008350724 -0.03960711 -0.08290047
000190 64 29 42 3d a1 ab 86 bc 8a d5 b4 3d 93 04 85 3d
       0.047402754 -0.01643926 0.08829792 0.06495013
0001a0 4f 83 9c 3d 18 e7 90 3d 72 10 24 bd 04 e6 ac bd
       0.076422326 0.07075328 -0.040054746 -0.084423095
0001b0 5b 35 69 3d 33 da 35 3d 3c 9b e6 3d 6c 22 c9 3d
       0.05693565 0.044397544 0.11260077 0.098210186
0001c0 09 4c f3 3d 9a fd 8e bd 09 36 af 3d 86 13 b0 3d
       0.11879737 -0.069819644 0.08555228 0.08597474
0001d0 5f f5 db 3c 49 4e 61 3d 54 7a bf bc 03 9f ec 3d
       0.0268504 0.0550063 -0.02337376 0.115537666
0001e0 dd 7a 58 bd 19 a8 fd bc 05 4c 88 bc 8b 11 03 3d
       -0.052851547 -0.030963944 -0.016637811 0.031999152
0001f0 89 b5 0a bd 75 c9 85 3d 66 cd 7d 3d 29 ed 9d 3d
       -0.03386453 0.065325655 0.06196346 0.0771125
000200 b9 06 a9 3c ba f2 2f 3d 4d a8 29 bd 4c 0c 0e 3d
       0.020633088 0.04295609 -0.04142027 0.034679696
000210 33 1d 93 3c d9 12 39 bd ce c5 8a bd 77 f2 f7 3d
       0.01795826 -0.04518399 -0.067760095 0.121067934
000220 50 2b 30 3d 80 be b4 bc 77 99 47 3d 6e 2c dc 3d
       0.043010056 -0.022063494 0.04873034 0.10750662
000230 ae 86 f2 3c df 91 4d 3d 5a a7 cd 3d 68 50 ad bd
       0.029605236 0.05018794 0.100416854 -0.08462602
000240 d5 47 e1 bb b6 92 09 bd 61 8e fb bc 73 f6 c7 bd
       -0.006875018 -0.03358718 -0.03070754 -0.09763803
000250 38 03 e4 3c a7 2c 0e 3d 17 7f fc 3d 8d 6a 82 3d
       0.027833566 0.034710553 0.12328928 0.06367979
000260 53 bd e1 3d 93 ba 97 bd 6a 5d 99 3d b0 85 d1 3d
       0.11022439 -0.07408633 0.074885204 0.10230577
000270 98 6a 10 bc 44 fa c1 3d 50 a4 83 3c 7d 1a 34 3d
       -0.008814476 0.094715625 0.016069561 0.043970574
000280 a4 2c 10 3e ce 73 a8 3c c9 f6 c6 bd 37 cf 7c bd
       0.14079529 0.020563032 -0.09715039 -0.061721053
000290 bf 55 0c 3e d0 46 26 3d 40 0d dc 3d 14 cc 60 3d
       0.13704585 0.040594876 0.10744715 0.054882124
0002a0 e6 d1 4c bd 01 e9 2d 3d f0 2a ae 3d a2 2f b9 3c
       -0.050004862 0.042458538 0.085042834 0.02260572
0002b0 bb d0 e0 3d 73 49 2c bd e9 99 bc 3d 21 9d 80 3d
       0.10977312 -0.042062234 0.092090435 0.0627997
0002c0 3d d4 8f 3d 16 43 20 3e e6 76 5d bd ea 65 a6 3d
       0.07022903 0.15650591 -0.05406847 0.08124907
0002d0 6b b8 ed 3d d8 56 69 3c c9 af c1 3d e2 2e 1a 3d
       0.116074406 0.014241897 0.094573565 0.037642367
0002e0 ca bd 12 3e 1a dc f5 3d 46 72 b2 3d 0c df 50 3d
       0.14330211 0.12004872 0.08713202 0.050993964
0002f0 2b fe 64 bd 98 9f 6e 3d 8f 84 09 be c9 3e 16 be
       -0.055906456 0.05825767 -0.13429473 -0.14672388
000300 91 94 0e be e4 9c cf 3d 49 ff 61 bd 5c 15 89 bd
       -0.13923861 0.101373464 -0.0551751 -0.06693527
000310 8b e3 df bc 94 60 1a 3c 7b 19 7c 3e 8a 98 1f bd
       -0.02733018 0.00942244 0.24619095 -0.038963832
000320 c6 fb e9 3d 45 1a a2 3d 72 19 e2 3c fc 6c 4a bd
       0.11424975 0.07915167 0.027600024 -0.04942034
000330 bc 0a 7a 3d 01 2a da 3d 51 86 b1 3d 90 41 c7 3d
       0.061045393 0.10652543 0.08668197 0.09729302
000340 54 35 99 3c aa ac e3 3d 1e 21 2c 3d d3 16 68 bd
       0.018702187 0.111169174 0.04202377 -0.056662392
000350 a1 c1 4e 3d 87 69 74 3d 82 b9 a6 3d b0 78 18 3e
       0.050477628 0.05967095 0.081408516 0.14889789
000360 30 1c 11 3e d4 a0 63 3d cc 7f b8 bd de ec c7 3d
       0.14170909 0.0555733 -0.0900875 0.09761976
000370 95 6c 65 bd 95 ef 19 bd ae 80 71 bc 97 d5 ef 3b
       -0.056011755 -0.037582 -0.014740152 0.007319163
000380 a1 6b 94 bd 90 ce 1f 3e 48 21 b1 3d bb b3 09 3e
       -0.07247091 0.15606141 0.08648926 0.13447468
000390 a1 76 94 bd 5a b1 d1 3d b9 2c 00 3e 3c ef dc 3d
       -0.07249189 0.10238905 0.1251706 0.10787818
0003a0 b2 ea cf 3d 52 6b ed 3c ae 2b df 3d 1d c3 9e 3d
       0.101521865 0.028981838 0.10897003 0.07752059
0003b0 bd 47 a8 3d dd 4d 5e 3d 3f 50 c8 3b 90 8d a9 bd
       0.08216808 0.054273475 0.0061130817 -0.08278954
0003c0 a1 cf c0 3d 8f 0e c8 3c 66 3d 6e 3d 53 cd b0 bc
       0.09414602 0.024421005 0.058164023 -0.021582281
0003d0 e1 48 9f 3d e6 bf c1 3d 23 97 ee 3d 16 5d 31 3e
       0.077775724 0.0946043 0.11649921 0.17320666
0003e0 51 87 b0 3c 0e 96 ea 3d a0 eb 11 3d 38 07 42 bc
       0.021548899 0.11454402 0.0356251 -0.011842541
0003f0 b9 7b da 3d e0 41 18 3e 86 a6 96 3d e3 28 89 3d
       0.106681295 0.1486888 0.073559806 0.06697252

embeds.2.weight f4 [84, 19]
000000 6f 34 a9 bb 65 a0 90 3c f3 2b 9f 3c 48 7c 80 bc
       -0.0051637213 0.017654607 0.019430136 -0.015684262
000010 39 81 5a bc eb 49 b1 bb 97 d2 0f 3b 4c b9 90 3b
       -0.013336473 -0.005410423 0.002194559 0.0044166204
000020 98 56 bc 3b e5 ff 19 bc d7 2d 5e bc 55 8c 41 bc
       0.0057476275 -0.009399389 -0.013560734 -0.011813243
000030 4e 82 97 bb 4c 39 ee bb 28 5c aa 38 4a a2 76 bc
       -0.004623688 -0.007270014 8.123397e-05 -0.015053341
000040 f9 48 8b bb 42 7c fe bb 30 60 66 bb 60 02 5b bd
       -0.0042506424 -0.0077662775 -0.0035152547 -0.05346906
000050 55 ac a7 bd 28 5d 21 be b7 6b 02 be 95 d4 64 3c
       -0.081871666 -0.15758193 -0.12736402 0.013966699
000060 aa d3 f1 bd e5 3d c2 bd 71 b7 21 bd 1a 0a 1d be
       -0.1180795 -0.09484462 -0.039481584 -0.15335885
000070 ea 5d 2e 3d d5 29 ea 3d c9 0d 16 3e 62 07 15 3d
       0.042570032 0.1143376 0.14653696 0.036383994
000080 1f 7e 16 bd ee bc 51 bd 30 6c b4 3d 4c 80 07 bd
       -0.036741372 -0.051205568 0.08809698 -0.033081338
000090 cc 61 0c be bc e8 c8 3d 70 91 b8 bc 6a 69 e4 3d
       -0.13709182 0.098100156 -0.022530288 0.11152919
0000a0 b8 bb 17 be 2a d7 9d 3c 2c f2 94 3d f3 f7 33 be
       -0.14817703 0.019267637 0.07272753 -0.17575054
0000b0 07 a0 bd bb 41 1b 8f 3d 93 1e d9 bd c7 99 a8 3c
       -0.005786899 0.0698762 -0.10601535 0.02058114
0000c0 70 e2 8a 3d da 2c 03 3d 63 d8 f2 3c cc 68 a8 bd
       0.06781471 0.032025196 0.029644197 -0.082231134
0000d0 41 ab 00 bc 39 17 9c bc 66 d2 6a 3d 8a ca 3b be
       -0.00785333 -0.019054042 0.057329558 -0.18338981
0000e0 e1 06 2a 3e ea 98 6f 3d a8 b0 a8 bd 89 b6 a6 bd
       0.16604187 0.05849544 -0.082368195 -0.081402846
0000f0 bf 56 05 bd d9 2a 5a bd fe 1a db bd c5 fc be bc
       -0.03255343 -0.05326352 -0.10698508 -0.02331389
000100 96 e7 34 3d 28 52 3f bd 35 c3 37 3d 52 15 91 3d
       0.04416617 -0.04670921 0.0448639 0.07084145
000110 b7 c5 d6 3d ef f0 3a bd 6a 06 1c be 93 5d 41 bd
       0.1048693 -0.04563993 -0.15236822 -0.04720838
000120 66 07 13 bd 23 af 6f bd e6 20 e4 bd a9 17 fd 3d
       -0.035895728 -0.058516633 -0.111390874 0.123580284
000130 7d 01 cc 3d d7 3c 52 3d 8c bb b0 3c eb ef 2d bd
       0.09961221 0.051327553 0.021573804 -0.04246513
000140 3b 43 ed 3d ab d9 7d 3b 50 cc 20 3d 7a 06 9f bd
       0.11585089 0.0038734477 0.039257348 -0.07764907
000150 3c c7 31 bd 24 0c 54 3d d5 a8 a0 3c 73 3f 64 3c
       -0.043402895 0.05176939 0.019611755 0.013931143
000160 85 72 12 bc 95 41 38 3e 17 34 f8 3d 05 0d 75 3d
       -0.008938436 0.17993768 0.1211931 0.05982687
000170 af a7 ec bc 14 2b 31 3d 30 d1 a5 3c 31 92 a4 3d
       -0.028888552 0.043253973 0.02024135 0.08035696
000180 4c 21 0b 3e 9c 3b b8 3d 8f 9c fb 3d 80 03 39 bd
       0.1358692 0.089957446 0.122857206 -0.045169353
000190 ad 6d 04 3e ef ab a2 bd 8e 01 b8 3d b6 15 59 3d
       0.12932463 -0.0794295 0.089846715 0.05299922
0001a0 db cc 0d 3e 67 68 07 3e d9 7f 07 3d d7 29 79 3d
       0.13847677 0.1322342 0.03308091 0.060830917
0001b0 9b aa b4 bd 26 47 e9 bd f1 be 24 bd df 06 34 3d
       -0.08821603 -0.113905236 -0.04022116 0.043951865
0001c0 64 dd 94 3d f5 12 4e 3c 85 9f 83 3d 7a 9e 1d 3d
       0.072687894 0.012577762 0.0642691 0.038481213
0001d0 a9 ac 8c 3b 1b 76 41 3d bb 73 f1 3c b4 ed 8c 3d
       0.0042930436 0.047231775 0.02947413 0.06881276
0001e0 38 5f 4a bd 7b a5 a2 3d bb 6f 0d bc ad b5 1c bd
       -0.049407214 0.07941719 -0.008632596 -0.038259197
0001f0 ef ec 2c bd 0c e8 e9 bc 2d 0b 70 bd 03 aa 2d bd
       -0.042218145 -0.028553031 -0.058604408 -0.042398464
000200 60 81 77 bd 7c 4d c5 bd b3 1a 95 3d 36 3d fe 3c
       -0.060426116 -0.096339196 0.07280483 0.031035047
000210 d9 e9 fb bc 01 d9 b4 bd 1b d7 c0 bd 67 ef aa bd
       -0.030751156 -0.08830453 -0.09416028 -0.083464436
000220 87 f2 b2 3c 4a 6b 21 bd f1 e5 0d be 8e 23 21 3d
       0.021844162 -0.03940896 -0.13857247 0.03934055
000230 82 66 39 3d 6d 7c db bd 52 c0 c0 3d fc 41 a0 3c
       0.045263775 -0.10717092 0.09411682 0.019562714
000240 f2 bb 83 3d 82 f2 10 3e 7b 89 f2 bd 63 a9 9a 3c
       0.06432332 0.1415501 -0.118426286 0.018879598
000250 69 80 dc bd 1a 7c d8 bb bb b6 d5 bd 57 b6 2d 3e
       -0.1076668 -0.006606591 -0.10435244 0.16964088
000260 62 a8 bb bd db ae f9 bd 9f b3 90 bd 42 57 d3 bd
       -0.09162976 -0.12191554 -0.0706551 -0.103193775
000270 60 67 a4 3d 74 df cb bd 02 f6 02 be 89 72 d0 3d
       0.0802753 -0.0995473 -0.12789157 0.10178096
000280 d6 09 f8 3c 36 46 29 3e 6e 0e 07 3e 25 c8 57 3d
       0.030278128 0.1653069 0.13189098 0.052681107
000290 6d b8 f1 3d c9 b8 51 3d 13 6f 28 3d 29 51 aa 3d
       0.118027546 0.051201615 0.041121554 0.08316261
0002a0 bd 7d 50 bd f9 fa 82 bd b0 5e ff 3d 08 c9 ce bd
       -0.050901163 -0.063955255 0.12469232 -0.100969374
0002b0 90 3e bc 3c 26 28 ca 3c 58 4f 90 bb 70 b5 dd bb
       0.02297905 0.024677347 -0.0044039898 -0.006766014
0002c0 2a e3 03 3c 4c 98 8b 3a 53 21 4d bd bb 11 fa 3c
       0.008049766 0.0010650246 -0.05008061 0.030526033
0002d0 e6 99 12 3b c4 5e 06 3c 68 3d e0 bc 6a da 56 3d
       0.0022369563 0.008201305 -0.02737303 0.05245439
0002e0 e9 36 f9 3d ea 8c d2 3d bd 36 b6 3c 2e bd e3 bb
       0.121686764 0.102807835 0.022242898 -0.006950042
0002f0 c6 41 13 3b 05 cc 1a 39 27 a3 d4 bd 93 c0 81 bc
       0.0022469624 0.00014762588 -0.10382681 -0.015838897
000300 f6 b8 52 bd 5e ac 74 bc 48 55 5b bd 6b 93 cc bd
       -0.051445924 -0.014933674 -0.053548127 -0.09989055
000310 c9 22 0b 3d 23 99 ee bd 97 00 ab bd ad 9a 52 3d
       0.03396872 -0.11650302 -0.08349722 0.05141704
000320 66 2e 0a 3e 9f fa 6a 3d b8 81 f9 3d c9 c9 72 bb
       0.13494262 0.057367917 0.12182945 -0.0037046543
000330 41 b2 da bd 85 c1 4c 3c 54 59 fe bc ab cb 93 bb
       -0.106785305 0.0124973105 -0.031048454 -0.004510363
000340 12 07 ce 3d 43 b9 81 bd ca 7a 09 be 2c 33 9c 3b
       0.10059942 -0.06334164 -0.13425747 0.0047668424
000350 cd 08 48 bd 40 dc 65 bc 1c d1 78 bc a8 ec 37 bd
       -0.048836518 -0.0140295625 -0.015186574 -0.044903427
000360 58 c5 88 3d e1 af 06 bd 7e 41 43 3e 97 79 38 3d
       0.06678265 -0.032882575 0.19067952 0.045037832
000370 e9 43 5c 3d 3b ba 9f 3d d4 29 f6 bb 3c 7b 30 3d
       0.0537757 0.077991925 -0.0075123105 0.043086275
000380 4e c5 67 3d 42 d9 ba bd 38 8f eb bd 4a 3e 9c 3b
       0.05658465 -0.0912347 -0.11501926 0.0047681676
000390 8d 92 cf bd b8 cb b5 bd 23 66 d9 bd 93 3c bc bd
       -0.10135374 -0.08876747 -0.10615184 -0.09191241
0003a0 02 1e ba bd 6f 03 e5 bd 9d d1 18 be 02 52 1f 3d
       -0.09087755 -0.111822955 -0.14923711 0.038896568
0003b0 cd ca 1e be 68 fd dd 3d 55 e8 24 3e 21 23 fc 3d
       -0.1550705 0.10839349 0.16104253 0.12311388
0003c0 19 83 cf 3d 6b 3d bb bc 4a 68 83 bd 51 d0 41 3e
       0.10132427 -0.022856435 -0.06416376 0.18927123
0003d0 f4 4d 83 3d 8a fe e5 bd fd aa b6 3d 0a 0e b7 bc
       0.06411353 -0.1123019 0.08919332 -0.022345562
0003e0 bc b5 d5 bb a1 7f 9c bd 47 3a 07 3e 3d 6c fd bd
       -0.0065219086 -0.07641531 0.13205825 -0.123741604
0003f0 89 23 c6 bd 86 43 fc bc 28 69 b5 3c f1 6c 3d bd
       -0.096747465 -0.030793916 0.022144869 -0.046246473

embeds.3.weight f4 [75, 10]
000000 ef b6 fa 3a 86 72 13 3b 6e 21 77 ba 7c b3 8a bb
       0.0019128005 0.0022498681 -0.00094272837 -0.004232822
000010 8d e2 db 3b 15 0a bf 3a 21 81 53 3b c0 a7 f8 3b
       0.0067103566 0.0014575148 0.0032273012 0.0075883567
000020 2b 03 af 3b e3 7e 15 bc 73 69 8a 3d 0e 6e a3 bc
       0.005340954 -0.00912449 0.06758394 -0.01994994
000030 fc 17 dd 3c af 0d c5 bd c4 25 d7 bd 21 d9 0a bd
       0.026988976 -0.096217506 -0.1050525 -0.033898477
000040 bc 83 ff 3d 82 92 8d bd 90 89 ad bd 9d 2b 81 bd
       0.12476298 -0.0691271 -0.084735036 -0.06307147
000050 24 c6 11 3d b1 66 a4 3d 52 16 0e be b3 0f 60 3b
       0.035589352 0.08027399 -0.13875702 0.0034189045
000060 d2 53 ed 3c 24 18 a0 3d bf f4 98 bc 97 f5 a7 3d
       0.028970633 0.078171045 -0.018671392 0.082011394
000070 42 00 f7 bb 18 25 0c 3d fb 79 27 3e 11 06 16 3c
       -0.0075378725 0.034215063 0.16355126 0.00915672
000080 53 9b 9c 3c 2d 1c b0 3c 72 2a 7a 3d 5b a2 a0 bc
       0.019117033 0.02149781 0.061075635 -0.019608667
000090 26 41 b9 bc b3 8d ca 3d 61 c6 68 bd ed 1d 00 bd
       -0.022614073 0.09890308 -0.056829814 -0.03127854
0000a0 43 c3 80 3d 99 c3 75 bc 55 db 49 3d e4 df 8e bd
       0.06287243 -0.015000247 0.049281437 -0.069762975
0000b0 f5 ae b0 3c 5c 4c 10 bb e1 bb c0 3b d6 5a a1 3d
       0.021567801 -0.002201817 0.005881772 0.07878654
0000c0 47 66 a5 3c 2f 08 68 bd ef 97 5d 3d 72 43 32 be
       0.020190371 -0.05664843 0.054099973 -0.17408541
0000d0 65 f0 03 3d d1 81 3f bd 28 0d 05 3e b0 c9 a4 3d
       0.03221168 -0.046754662 0.129933 0.08046281
0000e0 e3 26 8d bd a0 86 d4 bd e6 f4 8d 3d 48 94 a5 3d
       -0.06892183 -0.1037724 0.06931476 0.08084923
0000f0 fc 5c bf 3c 25 da 8f 3d 36 3d 21 bd 77 44 39 bd
       0.023359768 0.0702403 -0.039365016 -0.04523131
000100 93 b3 a3 3c 12 47 b5 3d 27 fd 03 be 0b cb a2 bd
       0.019983089 0.08851446 -0.12889539 -0.079488836
000110 5c 0a 54 bd 8c 5b 0c 3c 4e b3 95 bc 70 c8 2f bd
       -0.051767692 0.008566748 -0.018273976 -0.04291576
000120 07 41 01 3e 10 de 40 3d a5 87 f8 3c b5 a7 16 3e
       0.12622462 0.047086775 0.030338118 0.14712413
000130 eb 72 82 bd dc 0b 0d be eb d6 f2 3c 2b 9f 0f bb
       -0.06369575 -0.13774055 0.029643496 -0.002191494
000140 55 02 08 3e 4b 43 9b bd 47 9b ac 3d dd 65 bc bd
       0.1328214 -0.075811945 0.08428054 -0.091991164
000150 66 44 1d 3e f8 72 c0 3d 0f a2 a8 bd 40 4a 08 b8
       0.15358123 0.093969285 -0.08234035 -3.2494077e-05
000160 b6 9a d7 3c 55 04 c8 3d a1 5c 93 bb 70 c6 1a 3e
       0.02631889 0.09766451 -0.004497126 0.1511476
000170 15 aa ee 3d 91 29 9f 3d 82 03 b3 bb d7 e9 3d 3d
       0.11653534 0.077716 -0.0054630646 0.046365585
000180 f3 02 67 bd 07 91 e1 bc cc e6 32 bc d3 e6 9e 3d
       -0.056399297 -0.027534975 -0.010919284 0.0775887
000190 3a 07 c6 bd e4 64 77 3d 65 c3 56 bc 33 85 88 3d
       -0.09669347 0.06039895 -0.013108109 0.06666031
0001a0 72 3a e7 3c 77 a8 9b 3c 0b 56 b6 bd 8e 8b b0 bd
       0.028226111 0.019001229 -0.0890313 -0.08620368
0001b0 70 4a 94 3c a9 92 e2 3c 32 f9 a4 bc 04 08 d9 bd
       0.0181019 0.027657824 -0.020138357 -0.10597232
0001c0 83 55 88 3b 09 00 50 bd ec 86 0e 3d 2c 4d 91 3c
       0.0041605844 -0.050781284 0.03479664 0.017736994
0001d0 0d da 88 bc 61 10 d7 3c 8a 15 06 bd 2d b4 be bb
       -0.016705537 0.026252927 -0.032735385 -0.0058198185
0001e0 e5 a3 ad 3d 07 2e bf 3c 1a 8f 06 3d 99 b3 27 bd
       0.08478526 0.023337377 0.032851316 -0.040942762
0001f0 08 5a 38 3e c4 08 61 bc 7f 1f c3 bc 02 8f c3 bd
       0.18003094 -0.013735 -0.02381873 -0.09548761
000200 5e 90 b5 3d df 74 2d 3e 79 1f 91 3d e7 cc 41 3c
       0.088654265 0.16939114 0.07086081 0.011828638
000210 df ba 1a 3c f0 d7 43 bd c5 7d bf 3c 27 e7 18 bc
       0.009443968 -0.047813356 0.023375401 -0.009332455
000220 00 ba 1e 3c 3b fe 65 3d 36 54 81 3c c5 b4 35 3d
       0.009687901 0.056150656 0.015787225 0.04436185
000230 23 d8 9f bb 19 2b 0b 3d 48 a8 72 bd 1e f7 51 3d
       -0.0048780604 0.033976648 -0.059242517 0.05126106
000240 97 01 e2 bc bc f3 52 bd 06 5c e3 bc 38 61 3f 3d
       -0.027588649 -0.051501974 -0.027753841 0.046723574
000250 5e 64 9a bd c9 15 b7 bd a3 b0 e4 bb 5c 22 6c 3d
       -0.07538675 -0.08939702 -0.0069790646 0.057649955
000260 2d 79 b2 3d c8 1b eb bc af 4d b6 bc 50 52 70 3c
       0.08714519 -0.02869977 -0.02225384 0.014668062
000270 e8 70 d6 bc 6a 94 cd bd a9 8b 46 bd d2 a8 23 3d
       -0.026176885 -0.10038073 -0.048473034 0.03995592
000280 73 7a 8b 3d 4f 29 35 bb 5a e5 c0 3c f4 36 87 bd
       0.06810465 -0.002764303 0.023546863 -0.06602278
000290 c7 6a aa 3d b6 18 0b be 3a 15 6a 3d 12 31 95 bc
       0.083211474 -0.13583645 0.05714915 -0.018211875
0002a0 b7 6d c6 3d 72 fd d2 3d 3f 75 4e 3d 30 11 32 3d
       0.09688895 0.10302247 0.050404783 0.043473423
0002b0 40 76 63 bd 7b c1 7e bd 84 b1 00 bd b0 5a c5 3c
       -0.055532694 -0.062196236 -0.031419292 0.024091095
0002c0 68 65 83 bc a6 73 36 bd 83 09 2b be b6 67 ea bd
       -0.016039565 -0.044543885 -0.16702847 -0.114455625
0002d0 52 b0 05 be 88 1e ff 3d cb c5 02 3e 1a 53 19 3e
       -0.13055542 0.12456995 0.12770765 0.14973107
0002e0 00 da 2c bb 62 5b e0 3d bf df 96 bc 3d 48 ef bd
       -0.0026375055 0.1095493 -0.018417237 -0.116837
0002f0 cf dc 4b 3d 42 13 b2 3d df a8 95 bd 08 d9 a7 3d
       0.049771126 0.086950794 -0.073076 0.08195692
000300 01 d4 46 bd 1e 9a 31 bd 70 54 82 3d 4e 33 62 bd
       -0.048542026 -0.04335987 0.063637614 -0.05522471
000310 8b 26 27 3d c3 8d 81 3c 7c 75 97 3d 8a 5b 0c 3d
       0.04080824 0.015814668 0.07395455 0.034266986
000320 44 e6 1a bc be 1c 6c 3d c5 34 c6 bd 52 ca 52 bc
       -0.009454314 0.0576446 -0.09678034 -0.01286562
000330 de 56 aa bd c0 29 2c be 7d 81 87 3d 5a 4b f5 3d
       -0.0831735 -0.16812801 0.06616495 0.11977263
000340 3a 98 21 3d 19 1d c4 bd fb 35 9a 3d 0a 92 f4 bc
       0.039451815 -0.095758624 0.07529827 -0.029854793
000350 46 ae b8 3c 8b 7f dd bd 88 ac e1 3d 90 d9 a4 3d
       0.022544038 -0.108153425 0.11019236 0.08049309
000360 f8 83 d9 bc c6 84 d0 bc 35 75 75 bd 16 74 ba 3d
       -0.026552185 -0.025453936 -0.05992623 0.09104173
000370 8b d6 10 bd cf 50 ea 3c 50 2b 5b bd 9c b6 55 3d
       -0.035360854 0.028602986 -0.053508103 0.052176103
000380 36 2c a8 bd b2 31 b7 bd ee 8a 9a bc 00 37 b7 3d
       -0.082115576 -0.089450255 -0.018865075 0.08946037
000390 e5 ed 43 3d f5 9b 8f bd 2a 7c 1a 3c 2c ef cf bd
       0.047834296 -0.07012168 0.009429017 -0.1015304
0003a0 1d 8d 34 3d ce bf 82 3d c1 76 4a bd f6 f7 44 bd
       0.04407989 0.0638424 -0.04942966 -0.048088036
0003b0 35 2d 58 3d 2a 62 88 3d 9e e4 2c bd 6c 48 cc bd
       0.052777488 0.06659348 -0.042210214 -0.09974751
0003c0 6c ba e2 3d 7d 97 a3 3c d9 0d d5 bc 8b fc 8b bd
       0.110707134 0.019969696 -0.02600758 -0.06835278
0003d0 ee 73 a2 bd 1d 1c 0d bd 1f 43 b9 3d a7 fa 8a 3c
       -0.07932268 -0.03445064 0.090460055 0.016965223
0003e0 10 15 bf bb f4 e1 84 bd 57 ac f2 bc 2e bc 8e bd
       -0.0058313683 -0.0648841 -0.029623194 -0.06969486
0003f0 14 cc 99 3d 5c 97 79 ba 2a c4 cf 3d ee 1d a4 3d
       0.07509628 -0.00095211505 0.10144837 0.08013521

bn_cont.weight f4 [2]
000000 a3 4d 8e 3f bd 84 2c 3f
       1.1117443 0.6739004

bn_cont.bias f4 [2]
000000 b8 1a de 3d 8a a7 16 bc
       0.1084494 -0.009195218

bn_cont.running_mean f4 [2]
000000 50 b9 54 3b 01 db 7d 3a
       0.0032459088 0.0009683818

bn_cont.running_var f4 [2]
000000 04 7d 81 3f 21 91 7e 3f
       1.0116277 0.994402

layers.0.weight f4 [200, 38]
000000 4b ee e6 3e 9c 0f bb 3e 63 e4 65 be c6 df 06 be
       0.45103678 0.36535347 -0.22450404 -0.131713
000010 3a 6b c7 bd 28 15 05 3d 2b 32 56 bd a9 e4 1f 3e
       -0.09737249 0.03249088 -0.052293938 0.1561457
000020 ba a1 2a 3e e5 fa 18 3e 23 f8 87 bd 91 f2 fc 3c
       0.16663256 0.14939459 -0.06639125 0.030877383
000030 7f 5b 82 3d 24 8c b3 bd 54 f9 12 be 91 f3 30 3d
       0.06365108 -0.08766964 -0.14352924 0.043201033
000040 72 6d d8 3b ae 22 1e bd bb 32 c3 bd 5a ef ef bd
       0.006604844 -0.038607292 -0.095311604 -0.117155746
000050 8c c8 1b 3e de f2 5d bb d8 5f 86 3b b3 e1 bb 3d
       0.15213221 -0.0033866684 0.004100781 0.09173908
000060 80 62 56 3e 18 98 d5 bd 72 4d 2b be 0f 4a f2 3d
       0.20936012 -0.104294 -0.16728762 0.11830532
000070 16 7d 2f bd 01 13 12 3e 17 a3 d5 bd 85 73 0e be
       -0.0428439 0.14265062 -0.104314975 -0.13911255
000080 58 1c b5 3d 14 f9 73 3b 58 c0 0f 3e d4 04 54 bd
       0.08843297 0.003722732 0.14038217 -0.051762417
000090 02 29 e2 bb 6c 69 f9 b9 83 a9 be bd b9 d8 48 3e
       -0.006901861 -0.00047571526 -0.093096755 0.19613923
0000a0 88 16 0d 3e f0 5d fc 3d ab d0 c1 3d 7f f1 d5 bd
       0.13778126 0.12322605 0.094636284 -0.10446452
0000b0 e7 c2 da 3d 6c 68 5a be 69 1f 48 be f6 24 19 bd
       0.10681706 -0.21328896 -0.19543232 -0.037388764
0000c0 7e 8e 99 bd a1 4e 9b 3e 1a eb 4c bd 2a a1 5c 3c
       -0.07497881 0.30333427 -0.050028898 0.013466159
0000d0 18 ad b9 ba c6 0b 16 3d 4f 21 34 3e 44 6d 2d 3d
       -0.0014165966 0.03663232 0.17590831 0.042340532
0000e0 79 da 0e 3e 47 e4 5c 3d f9 f8 19 be c7 03 c2 bb
       0.13950528 0.05392864 -0.15036382 -0.0059208605
0000f0 5e e0 3a 3e 93 50 26 be 9d 88 12 ba 8e 08 b2 3d
       0.18249652 -0.16241674 -0.0005589815 0.08693038
000100 49 98 da 3d 8f cc 83 be aa 8a 26 bc d4 6e ec 3d
       0.10673577 -0.25742003 -0.010164896 0.11544576
000110 fd 51 a3 3d 58 57 e5 3d 19 61 1a bc dc fc a8 bd
       0.079746224 0.111983 -0.009422564 -0.08251354
000120 54 d0 a2 bd 28 fb ae bd b0 c3 40 bd e2 11 2e 3e
       -0.07949892 -0.08543998 -0.047061622 0.16999009
000130 cf 5c 48 bd 8d 8b 28 be e9 b6 63 3e 16 fe 7b bd
       -0.048916634 -0.16459484 0.22237743 -0.061521612
000140 96 d3 18 3e 55 5f 9a bd f9 c6 7a 3d 29 c2 56 be
       0.14924464 -0.075377144 0.06122491 -0.20972504
000150 6c cd 20 be 41 3d 79 be b8 de 06 be cb 6b 6c 3e
       -0.15703362 -0.24339773 -0.13170898 0.23087995
000160 29 29 8e be de 30 2d be a1 0f 6c 3e e0 ed 17 3e
       -0.27765778 -0.16913173 0.23052837 0.14836836
000170 29 45 12 3e 2d e7 32 3d 9c 5d 4f bd 60 33 74 3e
       0.14284195 0.043677498 -0.050626382 0.23847723
000180 dc ec 3f 3e f3 17 15 3e 6e 09 0f 3e 33 00 b5 bd
       0.18742698 0.14559917 0.13968441 -0.088379286
000190 d1 c7 59 be a2 ee af 3c a0 73 7f 3d 26 ad bb bc
       -0.2126763 0.021476094 0.062366128 -0.022909712
0001a0 54 cc 11 bd 71 e3 1e be d9 e9 58 3e de 26 01 3e
       -0.035595253 -0.1551645 0.21182956 0.12612483
0001b0 7a e9 ae bd 3a b2 53 3d 19 de e4 3d e9 d8 47 3e
       -0.08540626 0.051683642 0.11175174 0.19516338
0001c0 34 e2 e4 3c 6b 87 1e 3e 59 13 27 3d de 70 84 3e
       0.027939893 0.15481345 0.040789936 0.2586736
0001d0 0c f6 08 be ae 8a bc bd ab 90 a2 bd a8 1c dc ba
       -0.1337511 -0.092061386 -0.079377495 -0.0016793208
0001e0 4b 6a 0a 3c 77 f3 91 3d 17 34 1f 3e 5b df 23 3e
       0.008448194 0.07126515 0.15547214 0.16003172
0001f0 f9 ed 57 3e 27 f0 3f bc 52 b7 01 3d 7f 64 38 bb
       0.21086873 -0.011714972 0.03166897 -0.0028136072
000200 0f 58 7d bd 48 43 04 3e af 9a cd bd ba f5 2d bd
       -0.061851557 0.12916291 -0.10039269 -0.04247067
000210 f5 6b 01 be a6 00 d6 ba 4f 15 58 be 29 40 29 bd
       -0.12638839 -0.0016327098 -0.21101879 -0.041320954
000220 05 f6 0f be ec db 0b 3e 76 6e 61 b9 8a 0b 5a 3d
       -0.14058693 0.13658112 -0.00021498822 0.05323366
000230 b6 92 47 3d d5 6e 7e 3c 89 62 fe 3c 18 30 4c 3e
       0.0487239 0.015529354 0.031052845 0.19940221
000240 70 72 d2 3c 4b 6c 08 bd aa 77 9c bd 84 8b b8 3d
       0.025689334 -0.0333064 -0.076400116 0.090109855
000250 e6 9a d6 3d 97 46 1d 3e c5 10 53 bd 56 7c f2 bd
       0.10478763 0.15358959 -0.051529665 -0.118401214
000260 ff 7d cf 3d 82 02 30 3a dc 03 d1 bd 61 ff cd 3d
       0.10131454 0.0006714241 -0.10205814 0.10058475
000270 f3 7f 6f 3d 85 3a e2 bd 29 4a 07 be 37 b1 9a bd
       0.05847163 -0.11046318 -0.13211884 -0.07553332
000280 a5 7d 77 be 5d ad 34 be bf 9d 10 3e 7d 16 15 3d
       -0.24169023 -0.17644258 0.14122675 0.0363984
000290 90 44 b1 bb 67 44 aa 3d 74 df 4b 3d 00 8a 81 be
       -0.0054097846 0.08313828 0.04977365 -0.25300598
0002a0 de 8e 27 3d 58 b9 b8 3d 1b 60 3c bd be 66 bb 3d
       0.040907733 0.090197265 -0.04599009 0.09150456
0002b0 49 de ea bd a8 f2 71 be cf ce 9a bc 72 69 c0 3c
       -0.11468179 -0.23627722 -0.018897442 0.02348778
0002c0 df 88 1c be 31 f1 a4 3e df 7e ed 3d 12 2d 7f 3d
       -0.15286587 0.32215264 0.11596464 0.06229884
0002d0 c5 ff 69 bb 5b 22 ea 3d 1a 1e 72 be 00 df 0e 3e
       -0.003570543 0.11432334 -0.23644295 0.13952255
0002e0 18 e9 5d 3d 9d 3b a0 3d c4 7e 3e be 26 f9 91 be
       0.054177374 0.0782387 -0.18603045 -0.28510398
0002f0 28 98 9a 3d 0d 4a c6 3d 86 23 8e 3e 21 bc d0 3e
       0.07548553 0.09682093 0.27761477 0.4076853
000300 2c d0 72 be 68 e0 15 3d 27 0d 67 3c 24 36 61 bd
       -0.23712224 0.036590964 0.014102257 -0.054983273
000310 19 5c 5d be 6a 21 69 3e 35 21 37 3c da e9 1b 3d
       -0.21617164 0.22766653 0.011177351 0.038064815
000320 ea 1e 63 3e fe 24 8a be 62 cd 50 3e 0c e7 bd bd
       0.22179762 -0.26981348 0.20390847 -0.09272584
000330 e8 ec 10 bd c6 fa 07 be 04 72 84 bd 5c 42 6a be
       -0.03538218 -0.13279256 -0.06467059 -0.22876877
000340 4c 0d 5f 3d 1b 39 19 3e e4 eb a0 bc 80 ab ea bd
       0.05445604 0.1496319 -0.019643731 -0.11458492
000350 e7 d7 77 bd d1 56 46 3c ed 47 e3 bd d1 69 00 3e
       -0.060508635 0.01210566 -0.11097703 0.12540366
000360 27 4d 1a bd 88 ae b1 bd 32 8d 7c bd 82 ed 2c be
       -0.037671234 -0.08675867 -0.06165809 -0.16887477
000370 68 9d b5 3b ba dd 4e b9 82 7b fc 3c 2d f1 08 3e
       0.005542446 -0.0001972829 0.030820612 0.13373251
000380 cc 25 4a 3e f8 51 e9 3c a7 ab 80 be 2e 41 a9 bd
       0.19740981 0.028481469 -0.2513096 -0.08264385
000390 68 ac a8 3d 18 7a e1 3e ca f7 95 bd 16 b8 b5 3b
       0.08236009 0.44038463 -0.07322653 0.0055456264
0003a0 3c 57 23 3e 84 e1 02 3e 02 f6 95 be 5d 38 b9 3e
       0.15951246 0.1278134 -0.29289252 0.36175814
0003b0 de 2f 83 3e 2b 5d 40 3e 1f a7 c1 3d 75 a0 a7 3c
       0.25622457 0.18785541 0.09455704 0.020462254
0003c0 fd 54 31 3e de 9b 9b 3d 57 4c 0b 3e 51 cc 6d be
       0.17317577 0.07598089 0.1360334 -0.23222472
0003d0 35 76 10 3e 98 e8 f5 3c 6d 77 0e be 3f 25 76 ba
       0.14107592 0.030018136 -0.13912745 -0.00093897054
0003e0 de bc 10 be 00 d7 9c bd 9e 69 00 bd 2d f5 b1 3b
       -0.14134547 -0.076581955 -0.031350724 0.0054308386
0003f0 c0 27 d5 3d 50 b7 5d be 4b 3a 29 be f2 b2 f8 3c
       0.10407972 -0.2165196 -0.16526143 0.030358765

layers.0.bias f4 [200]
000000 e5 9f 03 3d a6 78 84 3d 97 af 5c bc d6 40 37 3e
       0.03213491 0.06468324 -0.013469598 0.17895827
000010 6f 78 b7 bd 1e f7 43 bd 0c 67 6e bd 21 5a 0b be
       -0.08958518 -0.04784309 -0.058203742 -0.136086
000020 a2 7a 31 bc 5e 3f 70 be 9d 3d 00 be 8e af 55 3e
       -0.010832461 -0.23461673 -0.12523504 0.2086775
000030 78 2e 51 3e 49 57 cf bd 9b c7 1d be 33 69 3e 3e
       0.20427883 -0.1012407 -0.15408175 0.18594818
000040 9a d4 14 bc 4e 8a ca 3c 05 9a 6f 3e dc e2 57 3e
       -0.009083891 0.024724152 0.23398598 0.21082634
000050 bf 3c ea 3d 3c f0 e2 bd 13 6e 90 bd 12 e9 04 be
       0.11437368 -0.11080977 -0.07052245 -0.12979534
000060 7e cf cb 3d a8 3c 07 3d d2 4d 13 3d 85 9b 2b be
       0.09951685 0.03301683 0.035962887 -0.16758545
000070 76 b5 3d be e3 92 85 bd d7 77 06 bc c0 5f 9e 3d
       -0.18526253 -0.06522157 -0.008207283 0.077331066
000080 03 61 c1 bd c3 9e 6c 3d 16 61 38 bd e0 09 8d bd
       -0.09442332 0.057768594 -0.045014463 -0.06886649
000090 c8 4b 0d 3d fc 15 3c be bd 8a a5 bd e2 f9 79 bd
       0.0344961 -0.18367761 -0.08083103 -0.061029322
0000a0 37 a4 0b 3e 78 ab b3 3b ef e0 38 3e 9d 92 81 bc
       0.13636862 0.005483087 0.18054555 -0.015816981
0000b0 1a fa 21 bb b8 29 7f be 4e 8f ac 3d 8b 1b a2 3d
       -0.0024715723 -0.24918258 0.08425771 0.0791541
0000c0 d4 de fa 3d 39 7c e9 3c e1 32 2c 3e 5d f8 36 3d
       0.12249532 0.028501617 0.16816284 0.04467045
0000d0 5c 24 75 3e eb a4 78 3d c2 d6 77 bc 7b d2 38 be
       0.23939651 0.060704153 -0.015126886 -0.18049042
0000e0 73 62 64 bd 00 2b 64 be 64 6d c5 3c 4d ac bd bd
       -0.05575795 -0.22282028 0.024100013 -0.092613794
0000f0 31 66 50 bd 5f d2 58 3e e6 59 db 3d 04 20 29 be
       -0.050878707 0.21174 0.10710506 -0.16516119
000100 7e fd c5 bd 0a 4f c7 3d cc 75 f7 3c 83 fc c7 3c
       -0.096674904 0.097318724 0.030207537 0.0244124
000110 9e 4c 8f 3e a9 26 a7 bd 6a 2d db 3d 1f 83 e6 bd
       0.27988142 -0.08161671 0.107020214 -0.11255478
000120 a4 65 d9 3d 12 58 63 be 4d af 73 be 63 d6 39 bb
       0.106150895 -0.22201565 -0.2379734 -0.0028356544
000130 1a 2f 1a be 15 b7 1d bd 31 44 9a be cb 1a 09 3e
       -0.1505703 -0.03850468 -0.3013015 0.13389127
000140 8e 94 d2 3d 18 94 b0 bd c7 a4 30 bd d2 d5 42 be
       0.10282241 -0.08621997 -0.043125894 -0.19026878
000150 8f a2 4e 3d e2 ff 98 bd 57 13 f7 3b b8 09 6c 3d
       0.050447997 -0.07470681 0.0075401473 0.057626456
000160 fe d6 1e 3e 8b 82 fd bd a5 3f cf 3d d5 55 b9 3d
       0.155117 -0.12378415 0.10119561 0.09049574
000170 ee d7 59 bd de 1e e4 3d 4e be 48 3c e3 c7 12 be
       -0.053184442 0.111387 0.012252403 -0.14334063
000180 9c 7f 40 bd 58 ff 51 3e 39 a7 44 3e 0a f1 e7 bd
       -0.046996698 0.20507562 0.19204415 -0.113252714
000190 85 db d0 3d ac 43 a3 bd 66 40 2d 3e 7d da 41 3e
       0.1019812 -0.07971892 0.16919097 0.18931003
0001a0 95 25 0f be 9d 56 72 bd 4e 92 ed bb cf 42 29 be
       -0.1397918 -0.059164632 -0.007250107 -0.16529392
0001b0 79 ab 5e be 60 13 02 3e 80 2f 5c be 23 79 da 3d
       -0.21745099 0.12702703 -0.21502495 0.10667636
0001c0 92 86 4b be 64 52 e9 bd 57 95 93 be ba 17 04 be
       -0.19875553 -0.11392668 -0.28824875 -0.12899676
0001d0 b4 52 48 3e 70 2e 91 bd ff 03 bb 3d 8e 70 05 3e
       0.19562799 -0.070889354 0.091316216 0.13031217
0001e0 6d fb 8e bd c6 35 84 3c 72 64 9f bd ca bf 02 bd
       -0.069815494 0.016138922 -0.0778283 -0.031921186
0001f0 f9 88 38 3d a0 04 d7 39 bd ac 74 be 60 b6 8c 3d
       0.045052502 0.00041011441 -0.2389402 0.06870723
000200 4c 2a 32 be a8 0f d7 3c bd 89 93 3d cf 81 07 be
       -0.17398947 0.026252583 0.07204006 -0.13233112
000210 54 12 a3 bc ff f2 68 bc 63 49 ea bd ce 46 16 be
       -0.0199062 -0.014218091 -0.11439779 -0.14675447
000220 d6 dd 83 bd 8a aa f4 bd 8d df 14 3e a4 f0 b8 3d
       -0.06438796 -0.1194659 0.14538403 0.090302736
000230 10 13 f1 3d 39 ae 1f 3e bc 3c 96 bc 84 cf b8 3c
       0.11771214 0.15593804 -0.018339507 0.022559889
000240 17 98 02 bc d9 c6 7d 3c 98 47 8b bd a7 2a 4c bd
       -0.007970831 0.0154893035 -0.06800765 -0.049845364
000250 62 8c 41 be 8b 1e d3 bd 60 ce 61 bd 3b c0 82 3c
       -0.18901208 -0.1030856 -0.055128455 0.015960803
000260 4f 7a 0d 3e d8 ea 84 3d ee fb 03 3e a7 a6 9a bd
       0.13816188 0.064901054 0.12889072 -0.07551318
000270 2c f8 a6 bd 47 c0 8a 3d 4c f5 30 3e 64 07 43 3d
       -0.08152804 0.06774955 0.17281073 0.04761447
000280 a4 f8 ab bd da a7 29 3e 1e 32 f4 3d c7 13 60 3d
       -0.08397034 0.16567937 0.119236216 0.05470636
000290 27 be 35 3e 6b df f4 bd 3f ee 40 3c 8c 90 4e be
       0.17748319 -0.11956676 0.011775552 -0.20172328
0002a0 65 93 05 3e 13 c2 dd bd be 5f 1e be f4 68 5f 3d
       0.13044508 -0.10828032 -0.1546621 0.05454345
0002b0 54 66 cc bd 7c e2 1c be 9c 3e 3e bd c0 b2 b7 bd
       -0.09980455 -0.15320772 -0.046446428 -0.08969641
0002c0 bc 1a 6a 3e f8 a4 4c 3d f9 5c 12 3e a3 14 5a 3e
       0.22861761 0.049962014 0.14293279 0.21296935
0002d0 8c 61 30 be 55 1d e4 3d ad d1 c5 3d bd 87 11 be
       -0.17224711 0.11138407 0.09659133 -0.14211936
0002e0 ed d9 1c 3d 69 ac a7 bd 24 02 28 3e 17 7a 86 bd
       0.038293768 -0.081871815 0.16407067 -0.065662555
0002f0 8b 02 d4 bb 91 e0 16 3e a7 36 c2 bd d8 99 03 be
       -0.0064700297 0.14734103 -0.0948308 -0.12851655
000300 2a bd 4e bd c9 3b 4f be 51 33 7b 3d 1d 7d 52 bd
       -0.05047337 -0.2023765 0.061328236 -0.05138885
000310 5d f2 8c bd 30 4e 10 be ee e9 dc 3c 1d b9 b0 3d
       -0.068821646 -0.14092326 0.026967015 0.086290576

layers.2.weight f4 [200]
000000 c4 a0 d0 3e ea 01 94 3e 80 3e 3f 3f 7e 63 0f 3f
       0.40747654 0.2890771 0.7470474 0.5601119
000010 ea b0 ed 3e 3a 03 49 3e 82 96 fc 3e 43 3f 5e 3f
       0.46424037 0.19630137 0.49333578 0.8681528
000020 ae ab ae 3e 05 de a8 3e a6 d0 8f 3e 7a f7 66 3f
       0.34115356 0.32981887 0.28088874 0.9022137
000030 89 ee 22 3f 43 bb db 3e 88 25 05 3f f2 03 3a 3f
       0.63645226 0.42916307 0.52010393 0.7266227
000040 a2 d7 5a 3f ae b2 d0 3e 39 d7 eb 3e 7b fe 06 3f
       0.8548528 0.40761322 0.4606264 0.52732056
000050 69 e4 f5 3e 9f 94 0e 3f d5 45 6b 3f 29 81 6c 3f
       0.48025826 0.5569553 0.9190343 0.9238458
000060 35 7e 13 3f 07 11 8d 3e f3 19 dc 3e d9 08 40 3f
       0.5761445 0.27552053 0.42988548 0.750135
000070 44 eb 57 3f 0c b3 64 3f 18 a6 9a 3e 29 e4 24 3e
       0.8434336 0.89335704 0.30204844 0.16102661
000080 29 8d 08 3f 1f b9 c2 3e 08 29 28 3d 17 a3 72 3f
       0.53340393 0.3803186 0.041054755 0.94780105
000090 91 3f 6a 3f 33 94 2f 3f 94 de 6b 3f e7 1a 6d 3f
       0.91503245 0.6858551 0.921365 0.92619175
0000a0 a6 1f d1 3d d9 6a 18 3f 04 42 46 3f 45 97 0a 3f
       0.102111146 0.59538037 0.7744448 0.5413707
0000b0 29 f6 c5 3e 54 30 b1 3e f5 e5 d7 3e 96 00 1b 3f
       0.38664368 0.34607184 0.4216763 0.6054777
0000c0 4f 79 b5 3d 5e c5 60 3f 38 1a e9 3e f3 b7 69 3f
       0.088610284 0.8780116 0.45527816 0.9129631
0000d0 cb e7 90 bd b4 5a f5 3e bd 58 61 3f a2 e3 88 3d
       -0.07075461 0.47920763 0.8802603 0.066840425
0000e0 1c 6d 36 3f d3 c9 3a 3e d8 89 65 3f 6a b5 75 3f
       0.7126024 0.18241052 0.8966346 0.9597994
0000f0 bd b0 3e 3f 82 06 60 3f 3d 20 e8 3e e6 e3 04 3f
       0.7448843 0.8750993 0.45337096 0.51910245
000100 6b 28 12 3f d4 58 84 3d af e1 ea 3d 7b 8c 60 3d
       0.5709292 0.06462255 0.11468827 0.054821473
000110 15 57 1a 3f 6e 97 80 3f 5d 77 0f 3e d5 f7 af 3e
       0.60289127 1.0046213 0.14010377 0.34368768
000120 92 26 52 3f 66 37 68 3f 01 de 08 3f a4 94 f8 3e
       0.82090104 0.9070953 0.5346375 0.48550904
000130 aa 98 8b 3e f9 43 4b 3f 56 a9 42 3c a2 24 cf 3e
       0.2726491 0.79400593 0.011881193 0.40457636
000140 ef 2d 88 3e d0 91 58 3f 86 67 2f 3f 1f da 23 3e
       0.26597545 0.8459749 0.6851734 0.16001175
000150 ca 2d 87 3f da a3 43 3f 73 fc 4f 3f 3b 99 23 3f
       1.0560849 0.7642189 0.8124458 0.63905686
000160 36 37 cb 3e cb c5 50 3f 01 bf cd 3e 05 31 3d 3f
       0.3969056 0.8155181 0.40184787 0.7390292
000170 03 c2 3f 3f 30 98 e5 bb b0 de 86 3c ed c4 04 3f
       0.74905413 -0.0070066676 0.016463608 0.51862985
000180 4f fb ec 3e 0a 18 19 3d 80 26 da 3e a8 6d 79 3e
       0.46285483 0.03737644 0.42607498 0.24358237
000190 5d 07 a7 3e 25 6b 3c 3e d9 b0 74 3f ad 30 6b 3f
       0.32622805 0.18400247 0.9558235 0.9187115
0001a0 10 c7 96 3e 39 8f 50 3d 11 68 3c 3f d3 a7 11 3f
       0.29448748 0.050917838 0.7359629 0.56896704
0001b0 9e 19 c1 3e f4 52 5a 3f e3 4b 30 3f eb b7 5c 3e
       0.37714857 0.85282826 0.68865794 0.21554534
0001c0 a1 cc 58 3f 97 54 0b 3e e7 85 31 3f b1 cb f8 3e
       0.8468724 0.13606487 0.69344944 0.48592904
0001d0 cd 80 5f 3f 8b 6a 41 3f 46 50 80 3f 0d c3 9d 3e
       0.8730591 0.75553197 1.0024498 0.30812874
0001e0 6c 8c 52 3f 65 fa 35 3e 13 b9 77 3d 36 0b 39 3f
       0.82245517 0.17771299 0.060479235 0.7228273
0001f0 d0 29 4c 3f 38 c8 47 3f 7b 5a b9 3b 71 aa 16 3f
       0.797513 0.78039885 0.005656538 0.5885382
000200 2c e7 87 3d f8 cb 53 3f 2b ab 4b 3f 8d 23 46 3f
       0.066358894 0.82733107 0.79558057 0.77397996
000210 68 1a 0f 3f 3c c0 82 3f d0 17 8e 3c 21 b5 f0 3e
       0.5589967 1.0214915 0.017345339 0.4701319
000220 f5 c9 4d 3f 3b 1c 7c 3d 05 65 44 3f c2 2a 86 3f
       0.80386287 0.06155036 0.76716644 1.0481799
000230 f5 29 b1 3e 4c 4c ae 3e ab d7 5d 3f 63 c2 29 3f
       0.34602323 0.34042585 0.8665721 0.66312236
000240 08 27 dc 3d f0 c6 df 3e e5 12 79 3f 62 86 13 3d
       0.10749632 0.43706465 0.97294456 0.03601683
000250 96 b4 37 3f 5c c1 16 3f 74 6c 19 3f b8 4c 36 3f
       0.7175993 0.58888793 0.5993111 0.71210814
000260 19 07 bb 3d e7 be 81 3e 0f 31 f9 3e a7 40 49 3f
       0.09132213 0.2534096 0.4867024 0.78614277
000270 4d e2 94 3e 1f df 4c 3e 65 1b 01 3f 35 28 4a bc
       0.29078904 0.20006989 0.50432426 -0.012338688
000280 4b f8 5a 3f a9 91 1b 3f 2e a1 a9 3e ce 18 54 3f
       0.85535115 0.60769135 0.33130783 0.8285035
000290 c3 e8 4b 3f ce c5 f3 3e f2 65 51 3f 97 ca 5d 3f
       0.7965204 0.4761185 0.8179618 0.8663725
0002a0 de 20 01 3f bf 63 22 3f fd b5 10 3f 79 1b 14 3d
       0.50440776 0.6343345 0.5652769 0.036159012
0002b0 ee 6d 93 3e 26 46 15 3f be 33 f9 3e 3b 29 64 3d
       0.28794807 0.58310163 0.4867229 0.055703383
0002c0 5a ef 82 3e ad 9b 1b 3f 0b c6 8a 3e 1c c0 4a 3e
       0.25573236 0.6078442 0.2710422 0.19799846
0002d0 e8 1d 89 3e 54 44 61 3f fd c6 e9 3e c3 88 21 3d
       0.2678063 0.87994885 0.4565963 0.039437067
0002e0 04 b0 f3 bc 71 71 fb 3e 86 9e 69 3e a9 38 8b 3f
       -0.029747017 0.49109986 0.22814378 1.0876666
0002f0 6b e0 df 3e a5 db 93 3e a5 4e ea 3e b9 d3 a7 3e
       0.43725905 0.28878513 0.45763126 0.3277872
000300 f7 5f 34 3f 3b ee f2 3e 22 7f c8 3e 93 37 c2 3e
       0.7045893 0.4744738 0.39159495 0.37933025
000310 c3 d8 c4 3d d0 6a 0e 3f a4 e2 5f 3f 52 fe 67 3f
       0.096116565 0.5563173 0.874552 0.90622437
