brewing/models/acb-1.pth (torch_old, 277278 bytes, 51 tensors)

embeds.0.weight f4 [457, 2]
-0.005387267 0.012198177 -0.16850126 -0.10995012 0.21361904 0.12681288 0.095498785 0.08248022
0.034848813 0.100113794 0.10101592 0.12029771 -0.2876582 -0.0021932004 0.006475561 0.010092106
0.027451662 0.057143733 0.068577915 0.056495935 0.018459389 0.09239941 -0.053431876 0.07298358
0.097542256 0.024792429 -0.053243745 -0.012641145 0.07120862 -0.10880623 0.09065217 -0.045193695
-0.045977842 -0.12129175 0.13304882 -0.04669552 0.15244935 0.17090718 0.017268728 0.108982734
0.06552907 -0.050043408 -0.11041481 -0.11258817 0.039593656 -0.024698617 0.0203761 0.12572603
0.17845972 0.0067644366 -0.07334684 0.028740695 0.03615054 0.17001079 0.04398306 -0.011103249
-0.031431906 -0.12067227 -0.1459254 0.09482877 0.06193298 0.10212112 0.113953635 0.119517915
-0.030891685 0.11051867 -0.012962802 0.047544815 0.15570103 0.1591376 -0.117116444 -0.11816846
-0.12117111 -0.117443405 -0.09355277 -0.01684815 -0.15440685 0.0009482556 0.027291326 0.07856974
0.08273962 0.17628828 -0.0054772166 0.038147025 0.08434066 -0.054642554 0.054800525 0.069294184
0.0877219 0.093710355 -0.20285735 -0.15098937 -0.0063179703 0.030131632 0.047474667 0.16477638
0.10812915 0.109356284 -0.05254635 0.19640431 0.007020035 -0.055208594 0.044994846 0.031277955
0.23594491 0.15197447 0.13019797 0.121272944 0.041255184 0.15589063 -0.009782921 0.044201072
0.14892714 0.12141001 0.0734787 0.01285287 0.0027227893 -0.02194693 0.17556609 -0.01838276
-0.04771786 0.17672037 0.11603048 -0.052364048 0.094015665 0.010460773 0.09767216 0.0371457
0.011792898 0.13425873 0.003180118 0.082875565 -0.092266835 -0.08483002 0.12613171 0.058793403
-0.07066395 -0.021565301 0.02193703 -0.14105195 -0.021852318 0.038776476 -0.16880539 0.024573004
0.100696646 0.047646776 0.107532784 0.095331915 0.022082308 -0.04084755 -0.01633255 -0.018085059
0.039584257 -0.08099306 0.12469503 0.06413139 -0.061364543 0.041707687 0.0013231172 -0.015720306
0.09099142 0.12788707 -0.031566978 0.038679823 0.063896954 0.05669218 0.016455634 -0.12639827
0.02538864 -0.0033299136 -0.109724656 -0.16478054 0.037828535 0.081730634 0.04299181 -0.10272048
-0.027484786 -0.039743926 0.13133085 0.06267549 -0.075460926 -0.057286527 -0.014381706 -0.059369642
-0.1079113 -0.08269046 0.036834817 0.016452076 0.05477626 0.11866913 0.07079447 -0.17240344
0.044509355 0.0675954 -0.066595204 0.093926035 -0.06538144 -0.089962006 0.040156145 0.051404454
-0.033953957 -0.004519891 0.16767716 0.02013804 0.19498172 0.07398202 0.072372176 0.08112434
-0.060670666 0.06856627 0.032861028 -0.025934087 0.12298396 0.02262902 0.11758962 0.09895983
-0.012357624 -0.042211015 0.15499885 0.042159982 0.12424061 -0.01229146 0.026726516 0.096845254
-0.053085387 0.130975 -0.15953015 -0.16629817 -0.031953868 -0.00891729 -0.15909046 -0.1197457
-0.037453923 -0.03060925 0.052867018 -0.10964831 0.13781436 -0.13619971 -0.092220746 -0.10819118
-0.16562106 -0.051948797 -0.099788986 -0.06336407 0.17531888 0.09868293 -0.0661957 0.06953201
0.13471502 -0.12619114 0.053299233 0.0064355466 -0.022645572 -0.018112626 0.20209844 0.035830215
00000000: ac87 b0bb ddda 473c 988b 2cbe 872d e1bd
00000010: f3be 5a3e 3cdb 013e de94 c33d 64eb a83d
00000020: a1bd 0e3d 7608 cd3d 6fe1 ce3d a55e f63d
00000030: f047 93be ccbb 0fbb f130 d43b 5c59 253c
00000040: 4fe2 e03c 8c0f 6a3d 9472 8c3d 4868 673d
00000050: 2538 973c e73b bd3d 62db 5abd 6a78 953d
00000060: 3cc4 c73d 7e19 cb3c 1d16 5abd ce1c 4fbc
00000070: d3d5 913d cdd5 debd d8a7 b93d 061d 39bd
00000080: 4353 3cbd cf67 f8bd f33d 083e cd43 3fbd
00000090: af1b 1c3e 4b02 2f3e 2677 8d3c 5732 df3d
000000a0: 1b34 863d 51fa 4cbd 2921 e2bd a094 e6bd
000000b0: f52c 223d c154 cabc c7eb a63c 53be 003e
000000c0: 25be 363e 35a8 dd3b de36 96bd 9b71 eb3c
000000d0: 9712 143d 4f17 2e3e 9527 343d 67ea 35bc
000000e0: bebe 00bd 0623 f7bd 786d 15be 9635 c23d
000000f0: 70ad 7d3d e124 d13d 8660 e93d cfc5 f43d
00000100: 8f10 fdbc 9d57 e23d ef61 54bc 5abe 423d
00000110: 1770 1f3e f8f4 223e bfda efbd 4e02 f2bd
00000120: 8f28 f8bd 2b86 f0bd 9898 bfbd 2205 8abc
00000130: d41c 1ebe 5b94 783a 0f92 df3c 2ce9 a03d
00000140: 6473 a93d ea84 343e 397a b3bb 0e40 1c3d
00000150: ccba ac3d dfd0 5fbd 8476 603d 1cea 8d3d
00000160: 8aa7 b33d 37eb bf3d d6b9 4fbe f59c 1abe
00000170: fa06 cfbb 9dd6 f63c cc74 423d 24bb 283e
00000180: d172 dd3d 30f6 df3d d73a 57bd 361e 493e
00000190: 5208 e63b 6822 62bd 844c 383d 501d 003d
000001a0: 8b9b 713e 329f 1b3e 9e52 053e f35d f83d
000001b0: 32fb 283d cba1 1f3e 8b48 20bc 2f0c 353d
000001c0: 5b80 183e d0a5 f83d 007c 963d d894 523c
000001d0: d370 323b 0cca b3bc 99c7 333e 7197 96bc
000001e0: ce73 43bd 2ff6 343e 63a1 ed3d af7b 56bd
000001f0: 498b c03d a963 2b3c 5708 c83d 1726 183d
00000200: 0037 413c 1f7b 093e 8769 503b aaba a93d
00000210: 65f6 bcbd 5dbb adbd ac28 013e 5ad1 703d
00000220: 43b8 90bd b7a9 b0bc 49b5 b33c ec6f 10be
00000230: a203 b3bc 15d4 1e3d 52db 2cbe 534d c93c
00000240: 0b3a ce3d 4429 433d 263a dc3d 613d c33d
00000250: f5e5 b43c c34f 27bd d7cb 85bc 1e27 94bc
00000260: 1a23 223d b0df a5bd 1c60 ff3d 5157 833d
00000270: 6359 7bbd aed5 2a3d 726c ad3a dfc7 80bc
00000280: b659 ba3d d4f4 023e 604c 01bd bc6e 1e3d
00000290: 68dc 823d 0f36 683d f7cd 863c 8c6e 01be
000002a0: d6fb cf3c ae3a 5abb 52b7 e0bd 3bbc 28be
000002b0: 18f2 1a3d 6462 a73d 2e18 303d 1d5f d2bd
000002c0: c627 e1bc 87ca 22bd 987b 063e 025c 803d
000002d0: 428b 9abd 47a5 6abd 3fa1 6bbc 952d 73bd
000002e0: 9a00 ddbd 9e59 a9bd 1be0 163d 81c6 863c
000002f0: 125d 603d cd08 f33d b1fc 903d 878a 30be
00000300: 714f 363d 756f 8a3d 1163 88bd 4b5c c03d
00000310: b4e6 85bd 003e b8bd c57a 243d 7a8d 523d
00000320: 4e13 0bbd 981b 94bb 90b3 2b3e 88f8 a43c
00000330: 4aa9 473e e383 973d dd37 943d 8524 a63d
00000340: ce81 78bd 796c 8c3d 4999 063d b973 d4bc
00000350: 04df fb3d 7f60 b93c d4d2 f03d 74ab ca3d
00000360: a277 4abc 75e5 2cbd 05b8 1e3e f2af 2c3d
00000370: dc71 fe3d 1f62 49bc 91f1 da3c ce56 c63d
00000380: 1070 59bd 4f1e 063e df5b 23be 114a 2abe
00000390: 0fe2 02bd d319 12bc 9ce8 22be 3c3d f5bd
000003a0: 4969 19bd 40c0 fabc 168b 583d 4b8f e0bd
000003b0: 351f 0d3e f077 0bbe 3bde bcbd 5693 ddbd
000003c0: 9198 29be 43c8 54bd 2b5e ccbd 06c5 81bd
000003d0: cb86 333e 471a ca3d 9c91 87bd cc66 8e3d
000003e0: bcf2 093e 4038 01be 4c50 5a3d 47e1 d23b
000003f0: 3583 b9bc ee60 94bc e5f2 4e3e b4c2 123d

embeds.1.weight f4 [100, 5]
-0.015610365 -0.0006143229 0.0011543874 -0.014935652 0.0015384506 -0.10312726 0.13419382 -0.07306034
0.03565954 -0.080193795 0.109685786 0.030524332 0.09284493 0.08531438 -0.09848716 0.0049555246
-0.020925945 -0.109691575 -0.0938432 0.11899645 0.0023109012 0.17208971 -0.023751646 0.100261435
-0.12364787 -0.040385865 0.0040986966 0.062249284 0.045397323 -0.072348334 0.08450735 -0.07258173
0.041640725 -0.027036997 0.0558261 -0.0013048591 -0.006877408 0.09935502 0.07850476 -0.09462026
-0.012776816 0.083226174 0.052910022 0.03757513 -0.12571163 0.075808495 -0.07037705 -0.031009175
-0.08168949 0.023849374 -0.07232453 0.025559286 -0.053337224 0.047658376 -0.10980036 0.007878287
0.11199604 0.00013483802 0.04736816 -0.059772752 -0.035028614 -0.010265589 0.010724929 0.12228047
-0.07790392 -0.049537987 0.0009846663 -0.04096903 -0.018934451 0.009835211 -0.05845838 -0.09878194
0.06582269 -0.096704364 0.11702532 -0.13824789 0.05119006 0.014224486 0.044113822 -0.07162425
-0.073300496 0.054504022 0.07151373 0.051990766 -0.07212597 0.082644396 0.0010806116 0.04807296
0.0025222627 -0.08762814 0.021676842 0.031822786 0.005782786 0.0040450264 -0.012733323 0.080825284
-0.045222245 0.070443176 -0.008866789 0.0002284278 -0.045966614 0.014835785 -0.045283478 -0.013232934
-0.044823557 0.006694211 -0.07060199 0.14832762 0.09936092 -0.07285915 -0.035354882 -0.0152793955
0.09116513 0.056178145 -0.08318562 0.076861575 0.059398033 0.06682814 0.024830464 -0.08522435
0.03682795 0.049974605 -0.07853158 0.0010403359 0.042841543 0.03517281 0.03281832 0.1002819
0.04276325 -0.08108653 -0.17638505 0.08202481 -0.0893219 -0.07309758 0.08139136 0.063235484
-0.06506375 0.07825873 0.075441204 -0.04157319 -0.04934679 0.10936163 -0.08545862 0.014939054
-0.017133849 0.11319913 -0.014918434 0.033307508 0.020861687 -0.01399195 -0.047282685 0.08128276
0.02152448 0.108938955 -0.12902461 0.08412345 -0.011698678 0.0011702006 0.02165377 -0.015342603
0.11275704 -0.16031976 0.020415876 0.080283985 -0.05625692 -0.029472038 0.045882344 -0.043606617
0.025393672 -0.05694358 -0.04090921 0.008957737 -0.13735889 0.017934496 -0.026736425 -0.12256794
0.10911323 -0.031443104 0.0709527 -0.10016711 -0.043246 0.069807686 -0.0046086414 0.08197407
-0.0800864 -0.014165238 -0.035085153 0.08921396 0.04932028 -0.07292816 -0.08706537 -0.024088196
0.05118732 -0.06382734 0.0050938604 0.03095058 0.04339434 0.036228213 -0.008768139 -0.0384325
0.08920166 -0.0902854 0.085203975 0.052161302 -0.029881055 0.09162587 -0.039844964 0.1065467
0.063279614 -0.09600539 -0.11878786 0.05755079 -0.059751403 -0.048361327 0.003394368 0.026818184
0.04356117 0.028166339 0.054174766 -0.098921455 0.06878357 -0.032056447 -0.039469637 -0.040464636
0.05237274 0.041064765 0.07817121 0.03064122 0.07759514 -0.0738083 -0.009749751 0.00750903
0.014667044 0.024841644 -0.101941906 -0.017422033 0.13029657 0.0048845634 0.09038716 -0.10056348
0.036026873 -0.011159464 0.055691704 0.02216315 -0.05818659 -0.14217326 0.10914745 0.018607214
0.065403745 -0.0851504 -0.045148924 0.06508885 -0.08825955 0.028590271 -0.049744107 -0.021823244
00000000: 9ec2 7fbc 830a 21ba d04e 973a aab4 74bc
00000010: d6a5 c93a 6334 d3bd 1b6a 093e a9a0 95bd
00000020: bd0f 123d a53c a4bd f1a2 e03d 2a0e fa3c
00000030: 7c25 be3d 4eb9 ae3d a3b3 c9bd f461 a23b
00000040: e36c abbc faa5 e0bd dd30 c0bd 69b4 f33d
00000050: 7d72 173b 4938 303e d092 c2bc de55 cd3d
00000060: 183b fdbd a66b 25bd 5c4e 863b 1bf9 7e3d
00000070: 8bf2 393d 5d2b 94bd 3112 ad3d bba5 94bd
00000080: 778f 2a3d b17c ddbc e9a9 643d ce07 abba
00000090: e15b e1bb a57a cb3d 1bc7 a03d 44c8 c1bd
000000a0: da55 51bc 7c72 aa3d 2eb8 583d 61e8 193d
000000b0: 8dba 00be 7c41 9b3d d821 90bd f406 febc
000000c0: d24c a7bd c35f c33c e21e 94bd b561 d13c
000000d0: 2278 5abd 6e35 433d 03df e0bd ee13 013c
000000e0: 2e5e e53d 4e63 0d39 1e05 423d 46d4 74bd
000000f0: 2a7a 0fbd 0031 28bc 9db7 2f3c 2f6e fa3d
00000100: 178c 9fbd 58e8 4abd eb0f 813a 24cf 27bd
00000110: 6c1c 9bbc dd23 213c 0e72 6fbd 304e cabd
00000120: 0cce 863d f00c c6bd f9aa ef3d db90 0dbe
00000130: abac 513d d20d 693c b2b0 343d bcaf 92bd
00000140: 921e 96bd 9c3f 5f3d ca75 923d 45f4 543d
00000150: c8b6 93bd 7741 a93d 4fa3 8d3a 27e8 443d
00000160: 8c4c 253b 6276 b3bd a293 b13c 9c58 023d
00000170: 867d bd3b 248c 843b 6d9f 50bc ba87 a53d
00000180: f63a 39bd 8344 903d 0246 11bc 1f86 6f39
00000190: 7d47 3cbd cb11 733c 2b7b 39bd f3ce 58bc
000001a0: e898 37bd 1d5b db3b c797 90bd 32e3 173e
000001b0: bd7d cb3d 2e37 95bd 48d0 10bd 6e56 7abc
000001c0: c9b4 ba3d 0e1b 663d 395d aabd 9a69 9d3d
000001d0: 5a4b 733d 31dd 883d 4269 cb3c 1b8a aebd
000001e0: e8d8 163d 2cb2 4c3d 2ad5 a0bd e15b 883a
000001f0: 9d7a 2f3d 5d11 103d 816c 063d 9960 cd3d
00000200: 8528 2f3d b210 a6bd 489e 34be a0fc a73d
00000210: 66ee b6bd 2fb4 95bd 83b0 a63d 9b81 813d
00000220: 2540 85bd 1d46 a03d eb80 9a3d a648 2abd
00000230: dc1f 4abd fef8 df3d ee04 afbd efc2 743c
00000240: 495c 8cbc f2d4 e73d 736c 74bc 746d 083d
00000250: 21e6 aa3c 7e3e 65bc 7dab 41bd 9377 a63d
00000260: 1b54 b03c 631b df3d 071f 04be ea48 ac3d
00000270: d0ab 3fbc 6b61 993a 3f63 b13c 8b5f 7bbc
00000280: 2aed e63d dd2a 24be 323f a73c ee6b a43d
00000290: a86d 66bd 586f f1bc 20ef 3b3d da9c 32bd
000002a0: 6406 d03c ac3d 69bd 6a90 27bd 79c3 123c
000002b0: cfa7 0cbe 5deb 923c 5906 dbbc e604 fbbd
000002c0: c276 df3d 7cca 00bd a64f 913d 6a24 cdbd
000002d0: b822 31bd 55f7 8e3d 1604 97bb 05e2 a73d
000002e0: 5704 a4bd 5015 68bc 73b5 0fbd cfb5 b63d
000002f0: 1004 4a3d 5c5b 95bd 544f b2bd 9c54 c5bc
00000300: cca9 513d e9b7 82bd 66ea a63b 128c fd3c
00000310: 43be 313d 0964 143d 3ea8 0fbc 666b 1dbd
00000320: 5caf b63d 8de7 b8bd 6c7f ae3d 17a7 553d
00000330: 1dc9 f4bc 58a6 bb3d 7934 23bd 2835 da3d
00000340: be98 813d 799e c4bd 0d47 f3bd 61ba 6b3d
00000350: e3bd 74bd 8716 46bd 0c74 5e3b cfb1 db3c
00000360: 336d 323d 18bd e63c 5ce6 5d3d 5597 cabd
00000370: 66de 8c3d 9f4d 03bd eaaa 21bd 3fbe 25bd
00000380: cc84 563d 8733 283d 3a18 a03d 4c03 fb3c
00000390: 33ea 9e3d ce28 97bd 6bbd 1fbc 4f0e f63b
000003a0: 0b4e 703c b480 cb3c ebc6 d0bd a7b8 8ebc
000003b0: 776c 053e b00e a03b e71c b93d 3af4 cdbd
000003c0: ea90 133d 2fd6 36bc fc1c 643d 7f8f b53c
000003d0: 1055 6ebd de95 11be b388 df3d 286e 983c
000003e0: 66f2 853d 5563 aebd 14ee 38bd 4e4d 853d
000003f0: 6cc1 b4bd 2536 ea3c 7ac0 4bbd a9c6 b2bc

embeds.2.weight f4 [84, 19]
0.0056945733 0.0121919215 0.005610147 -0.0047138394 0.0036191016 -0.012374301 -0.0013261745 0.0064277435
-0.01064363 0.01726259 -0.00059535354 0.0010532058 0.004623001 0.0013673621 0.0033443945 -0.0009147399
0.00086833583 -0.008201239 -0.0014560999 -0.12333531 0.03740199 0.10879031 -0.09290429 -0.02668362
0.09270043 -0.143427 -0.01493131 0.035822943 -0.19073607 -0.17368113 -0.115025245 -0.13414657
-0.03921772 -0.1812151 -0.06695366 -0.07168605 0.10684312 0.071924575 -0.04692529 0.08132718
0.120107055 -0.082959205 -0.06527153 0.07282485 -0.01482539 -0.11058518 0.07068429 0.012248711
-0.070257284 -0.07910653 0.07992177 0.06443953 -0.077991456 -0.115427256 -0.005234816 -0.023446804
0.0535862 -0.07467763 -0.0204921 -0.024662063 -0.07205429 0.07002906 0.07029263 -0.08345467
-0.07323147 0.020566616 -0.0029665385 -0.046492532 -0.009403401 -0.07790591 0.02977584 -0.081515
-0.029476574 -0.023232892 0.049058616 0.040370725 0.05333518 -0.033793278 -0.0318209 0.04773438
0.051094446 -0.040889602 0.0037483647 0.0339672 -0.055679496 0.052502755 0.03497041 0.025505625
-0.026636885 0.00064874854 0.08321306 -0.04177957 0.016315144 -0.05212847 -0.01490754 0.016953027
-0.085246444 -0.013800844 0.024128197 -0.003342406 -0.06104264 0.005517533 0.026330777 -0.08896284
-0.22347428 0.088327676 0.0333882 0.043132026 -0.039488155 0.08275298 0.1090527 0.041852508
-0.009043475 -0.05149749 -0.030264534 -0.025017137 -0.022112245 0.058513194 0.08578447 -0.0039320863
-0.06055072 -0.008381198 -0.008383979 0.028485898 0.044147782 -0.031952374 0.054797295 -0.03075155
-0.054057572 0.010944363 0.02219185 0.006242974 0.03805651 -0.07030515 0.018538943 0.08291249
-0.08847117 -0.007894612 0.10041793 -0.021875223 0.101082884 0.03739247 -0.1392785 -0.11418561
0.06437016 -0.24127571 -0.0058909347 -0.01747536 0.030449124 -0.029799165 0.044332076 0.019769445
0.0049109193 0.068733245 -0.01618999 -0.03792921 -0.062670305 0.037604313 0.06604406 -0.042890023
0.048404943 0.007864456 -0.039327662 -0.036201373 0.037851647 0.065097556 -0.0074733733 -0.059457734
-0.055337016 0.030518413 0.052138757 0.11339438 0.039524492 0.057245374 0.0060563236 0.02545369
-0.011191799 0.106604226 -0.02283024 -0.00970923 -0.008439234 0.018132484 0.06102029 0.16176136
-0.027194368 0.04382301 -0.022853645 -0.0026918254 -0.027947318 0.0058156713 0.014435288 0.13017076
0.120730124 -0.02702705 -0.11761474 0.0009994511 0.05098779 -0.12745601 0.04190013 -0.059507027
-0.08347605 -0.08348749 0.10752944 0.05887824 0.072168395 -0.10864164 -0.062360317 0.047894154
0.022483872 0.016817437 0.058322113 0.0504341 -0.12995926 -0.06701375 0.10337438 -0.064075366
-0.12354937 0.09542895 0.05178941 0.008103749 -0.011684957 -0.017379835 0.06282054 0.010582268
0.071132995 -0.020016264 0.09944538 0.047382895 -0.11517799 -0.05055809 0.020038081 -0.027583465
-0.0040040626 0.044942267 -0.066171944 0.014588463 -0.010910092 -0.16373804 -0.015107941 0.0034778358
-0.1821605 0.00041526943 -0.109087236 -0.04559491 0.030159464 0.013401598 -0.004144586 0.0039998814
0.019058859 -0.009273107 -0.06465293 -0.03895015 0.07696151 0.055399373 -0.03327294 0.012957929
00000000: 8b99 ba3b a0c0 473c 53d5 b73b 8d76 9abb
00000010: 732e 6d3b 95bd 4abc 08d3 adba d29f d23b
00000020: 9f62 2ebc 466a 8d3c 8011 1cba b90b 8a3a
00000030: 8b7c 973b 0f39 b33a a12d 5b3b 28cb 6fba
00000040: 08a1 633a 7d5e 06bc 9bda beba 3997 fcbd
00000050: d432 193d 74cd de3d 9b44 bebd 9b97 dabc
00000060: b9d9 bd3d 87de 12be 74a2 74bc 14bb 123d
00000070: 5150 43be 77d9 31be 5b92 ebbd b85d 09be
00000080: c3a2 20bd 7490 39be 001f 89bd 23d0 92bd
00000090: 91d0 da3d 314d 933d bc34 40bd dd8e a63d
000000a0: b0fa f53d 84e6 a9bd 14ad 85bd 3225 953d
000000b0: 31e6 72bc 7c7a e2bd edc2 903d d1ae 483c
000000c0: 0de3 8fbd 9b02 a2bd 06ae a33d dff8 833d
000000d0: fcb9 9fbd 2065 ecbd d288 abbb 8313 c0bc
000000e0: 347d 5b3d 96f0 98bd 0cdf a7bc 1808 cabc
000000f0: 3391 93bd 656b 8f3d 95f5 8f3d 48ea aabd
00000100: 62fa 95bd 527b a83c 426a 42bb f46e 3ebd
00000110: b910 1abc 228d 9fbd 76ec f33c 56f1 a6bd
00000120: db78 f1bc e852 bebc b0f1 483d c65b 253d
00000130: fd75 5a3d d26a 0abd a256 02bd 2085 433d
00000140: 6948 513d db7b 27bd 20a7 753b 3121 0b3d
00000150: 2f10 64bd 210d 573d 223d 0f3d 2cf1 d03c
00000160: 9935 dabc c710 2a3a 9c6b aa3d 0e21 2bbd
00000170: 56a7 853c aa84 55bd c13e 74bc 13e1 8a3c
00000180: b095 aebd ef1c 62bc 7fa8 c53c 440c 5bbb
00000190: d907 7abd 6ccc b43b a4b3 d73c 2632 b6bd
000001a0: 71d6 64be 24e5 b43d 11c2 083d 35ab 303d
000001b0: 55be 21bd 657a a93d 0657 df3d 896d 2b3d
000001c0: 152b 14bc 08ef 52bd 54ed f7bc bdf0 ccbc
000001d0: bd24 b5bc 88ab 6f3d c5af af3d bbd8 80bb
000001e0: 0804 78bd 4b51 09bc f55c 09bc 425b e93c
000001f0: 4ed4 343d 7ee0 02bd 2173 603d adea fbbc
00000200: 796b 5dbd fc4f 333c afcb b53c dd91 cc3b
00000210: 25e1 1b3d 25fc 8fbd fbde 973c 06ce a93d
00000220: 5f30 b5bd 6758 01bc eaa7 cd3d ab33 b3bc
00000230: 8b04 cf3d d928 193d 069f 0ebe 25da e9bd
00000240: 81d4 833d fb10 77be be08 c1bb 7c28 8fbc
00000250: 7170 f93c 611d f4bc 8d95 353d 88f3 a13c
00000260: c7eb a03b 04c4 8c3d dfa0 84bc a95b 1bbd
00000270: 4a59 80bd fb06 1a3d 1c42 873d 73ad 2fbd
00000280: 4344 463d ebd9 003c 0b16 21bd e447 14bd
00000290: 540a 1b3d de51 853d 33e3 f4bb f489 73bd
000002a0: 11a9 62bd c001 fa3c 738f 553d 503b e83d
000002b0: 6fe4 213d 207a 6a3d 2074 c63b 4284 d03c
000002c0: cf5d 37bc 5153 da3d 7c06 bbbc 7613 1fbc
000002d0: b744 0abc 938a 943c 69f0 793d c5a4 253e
000002e0: b9c6 debc c27f 333d 9137 bbbc 5669 30bb
000002f0: c6f1 e4bc 6391 be3b fc81 6c3c 7c4b 053e
00000300: 5b41 f73d d567 ddbc ffdf f0bd 0400 833a
00000310: 93d8 503d d483 02be 799f 2b3d a4bd 73bd
00000320: 7ef5 aabd 7dfb aabd 6538 dc3d 4f2a 713d
00000330: 06cd 933d 827f debd 886d 7fbd a92c 443d
00000340: 1930 b83c b9c4 893c 2be3 6e3d fd93 4e3d
00000350: 0a14 05be 813e 89bd f2b5 d33d f239 83bd
00000360: 7407 fdbd 4170 c33d 2221 543d 96c5 043c
00000370: 4372 3fbc 2860 8ebc 0ea8 803d 4061 2d3c
00000380: 2dae 913d 26f9 a3bc 05aa cb3d 9114 423d
00000390: 70e2 ebbd 0016 4fbd e726 a43c b8f6 e1bc
000003a0: 8334 83bb 6215 383d 2885 87bd 7304 6f3c
000003b0: 3ec0 32bc f2aa 27be 4c87 77bc 67ec 633b
000003c0: 4888 3abe 85b8 d939 2169 dfbd bac1 3abd
000003d0: fb10 f73c 6092 5b3c 4fcf 87bb 7011 833b
000003e0: 5321 9c3c 3bee 17bc c168 84bd 318a 1fbd
000003f0: ff9d 9d3d 74ea 623d 3549 08bd 7e4d 543c

embeds.3.weight f4 [75, 10]
-0.0011255397 0.005739752 0.011527998 0.006551255 -0.0023387773 -0.0021164499 0.013161927 -0.010559848
-0.00856696 0.00592364 -0.039172057 0.03608555 -0.10226571 0.060004417 0.06299325 -0.01721016
0.0137680685 0.048267096 -0.0316947 -0.007417133 0.010814711 0.012724906 0.053339757 -0.03836291
-0.00013111281 0.09123945 -0.16037609 -0.010396645 -0.05664008 -0.041355126 -0.014483897 -0.056739673
-0.06286134 -0.012524411 0.113252506 0.05521021 -0.09175642 -0.054647405 -0.03629683 -0.031316403
-0.050280817 -0.030228358 -0.04018891 -0.12781711 0.11823929 0.068792075 0.05736642 0.027575146
0.0721569 -0.08007002 -0.0065720347 -0.19582571 -0.050942644 -0.12352719 -0.093956016 0.105322465
-0.028970297 -0.049764898 0.067957036 0.09471814 -0.042323954 -0.09395176 -0.030088944 -0.050788086
-0.0006675287 0.032228734 -0.13022186 0.018951103 -0.05188657 0.010190136 -0.100345366 -0.044422995
0.08554679 0.049481075 -0.058694232 0.022763895 -0.014720688 -0.037180442 0.033194702 0.01679885
0.05459828 0.017359171 -0.07202482 -0.005822577 0.075656675 0.0396417 0.03400188 -0.039931018
0.10079057 0.04170871 -0.059534617 -0.11232326 0.07373554 -0.047928512 0.036805145 0.11235403
0.11153292 -0.07589023 0.092275195 0.018778129 -0.03791449 0.000377334 0.0010149251 0.037633948
-0.05434316 -0.0010754396 0.06399972 -0.083572954 -0.03550661 -0.021488013 0.10622133 -0.045975603
0.07008246 -0.032241806 0.022799773 0.089509025 0.02520272 -0.062874004 0.06259754 -0.023469847
0.013351919 -0.13032623 -0.073352866 -0.09881539 0.0430821 0.09557071 0.046799786 -0.06802556
0.015240536 -0.07206091 -0.04696156 -0.015264095 -0.09839573 -0.05427473 -0.02435535 0.0036294272
0.067674756 0.06571345 0.0010047345 0.018526535 0.067303814 0.016489916 -0.060441833 0.051488183
-0.04315636 -0.0315528 0.0070491266 0.121363364 -0.048729707 -0.049223743 0.044962477 -0.07427088
0.008315693 0.016752427 -0.08186548 0.02576658 -0.052962136 -0.1025322 -0.0083811125 0.04232711
-0.07009801 -0.025323918 -0.04022115 -0.057333637 0.042836517 0.11966695 0.09715371 -0.04947615
0.06992585 0.018965108 -0.03745248 0.0070238467 -0.03860354 -0.04313136 0.03150098 -0.0065738005
0.030652707 0.074084565 -0.008539577 -0.007818766 0.06230855 0.071840815 0.004054839 0.11078154
-0.07480882 -0.063718535 0.15647595 -0.027775234 -0.03711736 0.05530565 0.032348864 0.039057873
0.004458135 -0.094328515 -0.03184369 -0.0556315 -0.1268238 0.10867463 -0.07992036 0.007347865
0.034540057 0.053735763 -0.03322484 0.04929507 0.010279735 -0.045290142 0.020773264 0.09196583
-0.05324252 -0.010027946 0.16342798 -0.0779643 0.03751207 -0.044971228 0.08596917 0.14339809
-0.09101941 -0.038680557 0.028735284 -0.16219425 0.020616481 0.067186765 0.005994492 0.051300038
0.11939029 -0.057863038 -0.038565002 0.07138393 -0.034028783 -0.08872687 0.03369229 0.0018726276
-0.008746499 0.039661646 0.009390094 -0.040396936 0.06572497 -0.018445257 -0.044755377 -0.09239611
-0.00816328 0.034142125 0.018571308 0.008600728 0.07683548 -0.06591946 -0.034547526 0.005996725
-0.0043085823 -0.010034674 0.047442686 -0.09053765 0.01981937 -0.07081942 0.101848654 0.13353182
00000000: d886 93ba 8814 bc3b eedf 3c3c e9ab d63b
00000010: 2c46 19bb 23b4 0abb 20a5 573c 3603 2dbc
00000020: 6f5c 0cbc 181b c23b e172 20bd 71ce 133d
00000030: af70 d1bd 31c7 753d 9b02 813d 52fc 8cbc
00000040: 7793 613c b8b3 453d 4dd2 01bd 6c0b f3bb
00000050: 3030 313c 207c 503c ca7a 5a3d 6d22 1dbd
00000060: 547b 09b9 c0db ba3d a139 24be b156 2abc
00000070: 6eff 67bd fe63 29bd de4d 6dbc dc67 68bd
00000080: 72bd 80bd 3033 4dbc eef0 e73d 1a24 623d
00000090: caea bbbd f5d5 5fbd fcab 14bd a145 00bd
000000a0: 42f3 4dbd 76a1 f7bc 209d 24bd 7de2 02be
000000b0: 7127 f23d dce2 8c3d 0df9 6a3d 46e5 e13c
000000c0: ffc6 933d c0fb a3bd 395a d7bb 8986 48be
000000d0: 3ca9 50bd d3fb fcbd 036c c0bd 4eb3 d73d
000000e0: 1e53 edbc 47d6 4bbd 0f2d 8b3d 96fb c13d
000000f0: e25b 2dbd c869 c0bd 177d f6bc 2b07 50bd
00000100: 18fd 2eba 4702 043d e158 05be 583f 9b3c
00000110: 0387 54bd 87f4 263c df81 cdbd e3f4 35bd
00000120: 2833 af3d abac 4a3d 5d69 70bd 597b ba3c
00000130: 0a2f 71bc 854a 18bd 2bf7 073d be9d 893c
00000140: 72a2 5f3d d234 8e3c c081 93bd 51cb bebb
00000150: e3f1 9a3d 565f 223d 8e45 0b3d b58e 23bd
00000160: 496b ce3d c1d6 2a3d 92da 73bd bd09 e6bd
00000170: a902 973d b050 44bd fec0 163d df19 e63d
00000180: 5f6b e43d 566c 9bbd c7fa bc3d 97d4 993c
00000190: 394c 1bbd ead4 c539 3c07 853a 0e26 1a3d
000001a0: ef96 5ebd c4f5 8cba 4912 833d 4c28 abbd
000001b0: 616f 11bd a107 b0bc 928a d93d ea50 3cbd
000001c0: 6587 8f3d fc0f 04bd 97c6 ba3c 8250 b73d
000001d0: ef75 ce3c 16c4 80bd 2433 803d d643 c0bc
000001e0: 02c2 5a3c 3d74 05be 073a 96bd b95f cabd
000001f0: db76 303d 94ba c33d 22b1 3f3d fc50 8bbd
00000200: 71b3 793c ac94 93bd c45a 40bd 4116 7abc
00000210: b383 c9bd 2e4f 5ebd df84 c7bc afdb 6d3b
00000220: 1099 8a3d c694 863d 4cb1 833a f6c4 973c
00000230: 95d6 893d dc15 873c db91 77bd 46e5 523d
00000240: b9c4 30bd 823d 01bd 5cfc e63b 5b8d f83d
00000250: cd98 47bd d69e 49bd 932a 383d 551b 98bd
00000260: 8b3e 083c 633c 893c 17a9 a7bd 6f14 d33c
00000270: d3ee 58bd 67fc d1bd ef50 09bc 315f 2d3d
00000280: 8c8f 8fbd 1b74 cfbc efbe 24bd add6 6abd
00000290: 5875 2f3d f213 f53d 86f8 c63d 81a7 4abd
000002a0: 4935 8f3d b75c 9b3c c667 19bd 4c28 e63b
000002b0: bf1e 1ebd 82aa 30bd 2c07 013d 0969 d7bb
000002c0: 631b fb3c a6b9 973d 95e9 0bbc 481a 00bc
000002d0: 4037 7f3d 4721 933d 74de 843b 6fe1 e23d
000002e0: 5e35 99bd dd7e 82bd 3b3b 203e e388 e3bc
000002f0: 5f08 18bd 2d88 623d 3e80 043d 26fb 1f3d
00000300: 8c15 923b 4f2f c1bd 876e 02bd dbdd 63bd
00000310: 19de 01be ce90 de3d 49ad a3bd 5cc6 f03b
00000320: e079 0d3d 081a 5c3d c516 08bd a1e9 493d
00000330: 556c 283c 2882 39bd b12c aa3c 9558 bc3d
00000340: d414 5abd 414c 24bc aa59 273e bfab 9fbd
00000350: 42a6 193d c033 38bd 9b10 b03d f3d6 123e
00000360: 6268 babd 816f 1ebd 4266 eb3c 4016 26be
00000370: e5e3 a83c 3799 893d 726d c43b fd1f 523d
00000380: e582 f43d cb01 6dbd 56f6 1dbd bd31 923d
00000390: c461 0bbd 6fb6 b5bd ed00 0a3d f572 f53a
000003a0: 7a4d 0fbc 4074 223d e9d8 193c 4277 25bd
000003b0: d09a 863d 821a 97bc 6a51 37bd 2c3a bdbd
000003c0: 47bf 05bc 9dd8 0b3d db22 983c 11ea 0c3c
000003d0: ec5b 9d3d c800 87bd b581 0dbd 2d80 c43b
000003e0: 022f 8dbb 7968 24bc 4353 423d ce6b b9bd
000003f0: 3b5c a23c c609 91bd 0796 d03d 91bc 083e

bn_cont.weight f4 [2]
0.5867724 0.22411427
00000000: b736 163f 367e 653e

bn_cont.bias f4 [2]
0.027340388 0.06735778
00000000: f3f8 df3c e0f2 893d

bn_cont.running_mean f4 [2]
-0.0022960713 0.004521442
00000000: af79 16bb 9b28 943b

bn_cont.running_var f4 [2]
0.96810514 0.9911758
00000000: bdd5 773f b2bd 7d3f

layers.0.weight f4 [200, 38]
0.17996766 0.21111067 -0.05722402 -0.1400294 -0.18668161 -0.23996936 0.05308273 0.15724239
0.01038674 0.01493754 -0.037025798 -0.08621071 -0.03065273 0.1961817 -0.13324553 -0.15845232
-0.26588112 0.22873668 0.17606708 -0.104620956 0.01393802 0.14679801 -0.06334381 0.055224396
-0.2137118 -0.20224802 0.15001701 -0.14115545 0.24763502 -0.20288484 0.20821486 0.13817574
0.11106435 -0.037348613 0.32650843 -0.10524459 -0.080806375 -0.053102545 -0.17199314 -0.3200099
-0.0009840775 -0.26741454 0.3688327 -0.08781815 0.02563687 -0.17008899 0.17636111 -0.10564764
0.17485632 0.057799775 -0.03213507 0.23891863 0.079863675 0.040538277 0.043066565 -0.07838063
0.027426934 0.23908783 -0.16054899 -0.025772374 -0.17162319 0.026069691 0.06454174 0.29294387
0.122515924 -0.22629808 0.12563139 0.2502557 0.20756906 0.022321599 -0.31720576 -0.18627389
-0.2550319 -0.13608542 -0.16815014 -0.11623276 -0.045261275 -0.19645873 0.1542457 0.0367275
-0.15925707 0.1760164 0.13957146 -0.082314186 0.12926215 -0.059957545 -0.06681962 -0.16222245
-0.106833376 0.0587144 0.06303176 -0.050658207 0.08910935 0.16492291 0.00851529 0.07355191
0.025233237 0.118028164 0.033384815 0.07735219 -0.13159811 0.16441913 -0.08834197 -0.062705696
-0.06476072 0.05655699 -0.14508422 0.029620022 0.097732075 0.18253043 0.0037903166 -0.027328921
-0.06636039 0.21943145 -0.096686386 0.036777336 -0.21781442 0.037355844 -0.20016204 -0.13702072
0.051179525 -0.21645232 -0.172858 -0.049429152 0.12329738 0.16916631 -0.089691624 0.049830955
-0.20385966 -0.0060681268 0.010600701 0.04457755 0.026583899 -0.15887634 -0.25729603 -0.16426228
0.2350607 0.09323128 -0.21255082 0.027292667 -0.20880096 -0.030161291 0.12846537 0.2144838
0.04686154 -0.17608063 0.07919742 0.10319238 0.037805613 -0.006369445 -0.011334688 -0.039157536
0.18997908 -0.114786856 0.11944213 -0.12105939 -0.19910239 0.014278126 -0.0372096 -0.21928503
-0.035512134 -0.05008982 0.07281625 0.07517312 -0.15966201 -0.0046040975 0.116378345 -0.1162368
0.20975032 -0.03513157 -0.13039927 0.051665284 -0.12514174 0.10679559 -0.022762673 -0.12382473
0.13489893 0.032359935 0.027432311 0.019661022 -0.1195959 -0.12910903 0.08747227 -0.007709695
0.016695138 0.03742681 0.033827197 0.081551135 0.1357412 0.12041405 -0.23523709 0.081845485
-0.24315909 -0.15952787 -0.08030438 -0.029534303 -0.021134095 -0.016904159 0.013483159 -0.094896354
-0.122636996 0.23198646 0.03684069 -0.2394926 0.061394956 0.05021867 0.3382485 -0.17396592
-0.063254274 -0.13129781 -0.07688989 0.07558209 -0.020323973 -0.26125863 0.17805232 0.19339538
0.05779062 -0.07585253 -0.08488828 0.17156993 -0.12232241 0.13483028 0.03007226 -0.080910906
0.0019850582 -0.08307535 0.10008495 0.0030715887 0.116410196 0.062208846 0.062462673 -0.09391932
0.18209718 -0.085987486 0.029538225 0.085388236 -0.048348535 0.032124843 -0.018687837 0.023439499
-0.09401426 0.22444896 0.20675333 -0.09549581 -0.04285143 -0.020711156 -0.03449525 0.03089033
-0.029106747 -0.01244786 -0.010087885 0.0036634225 0.05244317 -0.22456756 0.16476841 0.20094334
00000000: 7149 383e 652d 583e bc63 6abd de63 0fbe
00000010: 7729 3fbe 87ba 75be 476d 593d 2604 213e
00000020: 252d 2a3c 95bc 743c 5da8 17bd 3e8f b0bd
00000030: 6f1b fbbc dbe3 483e 8471 08be 5341 22be
00000040: 9221 88be f339 6a3e ee4a 343e 8343 d6bd
00000050: 4b5c 643c 3852 163e 66ba 81bd fa32 623d
00000060: 44d7 5abe 1b1a 4fbe 0f9e 193e 0e8b 10be
00000070: 0994 7d3e 0bc1 4fbe 4736 553e f17d 0d3e
00000080: b575 e33d dcfa 18bd 1d2c a73e 7a8a d7bd
00000090: d07d a5bd 0e82 59bd f81e 30be 56d8 a3be
000000a0: 29fc 80ba 8fea 88be a4d7 bc3e 01da b3bd
000000b0: 6a04 d23c cf2b 2ebe 0298 343e ca5d d8bd
000000c0: 890d 333e 75bf 6c3d 10a0 03bd 16a7 743e
000000d0: 918f a33d 770b 263d 9166 303d 0686 a0bd
000000e0: 73ae e03c 71d3 743e f466 24be 9620 d3bc
000000f0: fdbd 2fbe 1b90 d53c 762e 843d bdfc 953e
00000100: a1e9 fa3d afba 67be 84a5 003e 8421 803e
00000110: fc8c 543e c9db b63c cb68 a2be 95be 3ebe
00000120: 8b93 82be fa59 0bbe 8d2f 2cbe 710b eebd
00000130: e363 39bd 7a2c 49be 96f2 1d3e 936f 163d
00000140: 4914 23be a53d 343e d2eb 0e3e 5794 a8bd
00000150: 4c5d 043e 0b96 75bd bad8 88bd a41d 26be
00000160: 75cb dabd 837e 703d cc16 813d fb7e 4fbd
00000170: f77e b63d 8de1 283e b783 0b3c 62a2 963d
00000180: efb5 ce3c c0b8 f13d 84be 083d d36a 9e3d
00000190: a8c1 06be 7d5d 283e a3ec b4bd d86b 80bd
000001a0: 45a1 84bd 4da8 673d f590 14be b0a5 f23c
000001b0: c127 c83d 42e9 3a3e f666 783b e7e0 dfbc
000001c0: f5e7 87bd a3b2 603e 8303 c6bd d5a3 163d
000001d0: be0a 5fbe 7102 193d 47f7 4cbe 294f 0cbe
000001e0: 9fa1 513d ada5 5dbe b001 31be 3976 4abd
000001f0: 5683 fc3d ef39 2d3e 3eb0 b7bd 8b1b 4c3d
00000200: 96c0 50be 23d7 c6bb 90ae 2d3c f396 363d
00000210: 7ac6 d93c 7bb0 22be 4ebc 83be 5f34 28be
00000220: c1b3 703e 0bf0 be3d eca6 59be df94 df3c
00000230: ebcf 55be d014 f7bc 6d8c 033e a4a1 5b3e
00000240: e3f1 3f3d 7b4e 34be 4232 a23d 8756 d33d
00000250: 0fda 1a3d c7b6 d0bb 21b5 39bc a763 20bd
00000260: e089 423e 5f15 ebbd 139e f43d fced f7bd
00000270: 7fe1 4bbe cdee 693c 1869 18bd 418c 60be
00000280: 2c75 11bd fc2a 4dbd b020 953d 5df4 993d
00000290: 707e 23be f8dd 96bb c557 ee3d 8f0d eebd
000002a0: cac8 563e 1fe6 0fbd 6387 05be fa9e 533d
000002b0: 2825 00be a5b7 da3d c978 babc d297 fdbd
000002c0: f222 0a3e da8b 043d bab9 e03c 2710 a13c
000002d0: b2ee f4bd 2835 04be a924 b33d 9ca1 fcbb
000002e0: 3ec4 883c db4c 193d 638e 0a3d 4804 a73d
000002f0: beff 0a3e a49b f63d fee1 70be 9b9e a73d
00000300: b2fe 78be 465b 23be 9f76 a4bd ecf1 f1bc
00000310: 6921 adbc 977a 8abc 78e8 5c3c 0559 c2bd
00000320: 1b29 fbbd dc8d 6d3e 43e6 163d 8c3d 75be
00000330: 4779 7b3d 18b2 4d3d e82e ad3e 1f24 32be
00000340: 758b 81bd ef72 06be 7278 9dbd c8ca 9a3d
00000350: 767e a6bc b1c3 85be 5953 363e 7009 463e
00000360: dbb5 6c3d 9258 9bbd e8d9 adbd 07b0 2f3e
00000370: 2c84 fabd f310 0a3e 1a5a f63c 9eb4 a5bd
00000380: c017 023b 6923 aabd 57f9 cc3d b54c 493b
00000390: 7868 ee3d b4ce 7e3d dcd8 7f3d c658 c0bd
000003a0: af77 3a3e 351a b0bd 26fa f13c 07e0 ae3d
000003b0: 1d09 46bd 5795 033d 3c17 99bc 3104 c03c
000003c0: 8c8a c0bd f3d5 653e 25b7 533e 4f93 c3bd
000003d0: fb84 2fbd 71aa a9bc e44a 0dbd b80d fd3c
000003e0: 4671 eebc 1cf2 4bbc a847 25bc 0816 703b
000003f0: a6ce 563d 0af5 65be 0db9 283e 17c4 4d3e

layers.0.bias f4 [200]
-0.025906008 0.010288634 0.028802717 -0.21158507 -0.111155935 -0.10289211 -0.22195937 -0.013477399
-0.12506656 -0.105362676 0.027336884 0.059219554 -0.07265366 -0.020484129 -0.23729673 0.19624248
-0.1730875 0.211393 -0.09782813 -0.010758762 0.06621864 0.017504776 -0.11654509 0.038757633
-0.11407731 0.15786381 -0.1075937 -0.0156513 0.2917695 0.05746739 0.21214715 0.070432454
0.13529874 -0.0058163945 0.03527562 -0.0699039 -0.099987336 -0.1449259 0.025008498 -0.06775078
0.011639813 0.1816249 0.11412857 0.18611419 -0.05973756 -0.15106884 -0.0013100873 -0.105310075
0.029540744 -0.0852453 0.24025239 0.165336 -0.08942132 -0.10928118 -0.13517983 -0.14595401
-0.004900075 0.22128619 0.048341334 -0.10401492 -0.2769479 -0.09909038 -0.048068974 -0.05353133
0.07235096 -0.05262977 0.20488934 0.09830597 0.3092008 -0.05166251 -0.0602853 -0.2152661
0.0020985922 0.06390648 0.07405298 0.04450493 0.07453005 0.05719791 -0.0483431 -0.05941325
-0.036879353 0.0877789 -0.06565718 0.198319 0.0035196864 -0.14874254 0.21886906 -0.049271606
0.07941215 0.003977211 -0.08472431 -0.15069072 0.04784221 -0.0018043823 -0.0072296797 0.08658261
-0.043515638 0.07290059 -0.08966904 -0.02940996 -0.17196499 -0.025477292 0.22744372 -0.0058668084
-0.048618097 -0.043153808 0.10139635 -0.19799352 0.050715216 -0.011064669 -0.098785885 0.036267653
-0.07223698 -0.06280866 -0.12650967 -0.07861925 -0.13173796 0.051608898 0.013531947 -0.025122553
0.09792539 -0.04584923 -0.15992045 0.060351484 0.14447679 0.17608428 0.12054534 -0.036848623
-0.14864637 -0.018731134 -0.19122417 -0.0004050926 0.17295253 -0.027154636 -0.120269306 -0.23891526
-0.0017248247 0.17115365 -0.21795006 -0.011811634 0.024302479 0.0068987706 -0.02303464 -0.051499188
-0.15253654 0.13582942 -0.031662367 -0.07537079 0.052537035 0.16167952 0.12915389 0.04679817
0.1612653 -0.23546723 -0.045730997 -0.11761029 -0.069404736 -0.019609964 0.02351767 0.14677174
-0.11449136 -0.056296483 -0.14031611 -0.065331265 0.055155743 0.026692284 0.008956721 0.1845652
-0.085213095 0.1800088 -0.11570181 0.22974363 0.0064036115 0.04123274 -0.009414547 -0.098643765
0.09245142 -0.08246075 -0.124111 -0.21671896 0.1095465 -0.10414655 -0.04278825 -0.0020353647
0.28224945 0.07418835 -0.0417425 0.106300585 0.1499756 0.08753204 0.016259573 -0.010535274
0.19264059 -0.122514434 -0.057368357 0.17197618 0.20612432 0.008292465 0.1277454 -0.044679135
00000000: d638 d4bc a991 283c adf3 eb3c c2a9 58be
00000010: b9a5 e3bd 19b9 d2bd 5149 63be 4fd0 5cbc
00000020: 7311 00be 63c8 d7bd 9af1 df3c 3490 723d
00000030: 71cb 94bd 55ce a7bc eafd 72be caf3 483e
00000040: d93d 31be 6877 583e 1d5a c8bd 8545 30bc
00000050: a39d 873d 2d66 8f3c 31af eebd 53c0 1e3d
00000060: 5da1 e9bd 0da7 213e 165a dcbd 2837 80bc
00000070: d062 953e ed62 6b3d 1a3d 593e e43e 903d
00000080: c18b 0a3e 7497 bebb 2b7d 103d c729 8fbd
00000090: 29c6 ccbd 7567 14be 9fde cc3c ecc0 8abd
000000a0: eab4 3e3c e1fb 393e 3dbc e93d b894 3e3e
000000b0: 5faf 74bd cab1 1abe 3cb7 abba cfac d7bd
000000c0: 6eff f13c 1695 aebd b904 763e d74d 293e
000000d0: 8622 b7bd d0ce dfbd 956c 0abe f874 15be
000000e0: cf90 a0bb d998 623e 9001 463d c605 d5bd
000000f0: 1dcc 8dbe e6ef cabd f9e3 44bd ab43 5bbd
00000100: bd2c 943d 5092 57bd 83ce 513e a454 c93d
00000110: 914f 9e3e 119c 53bd b8ed 76bd b76e 5cbe
00000120: 8988 093b 67e1 823d 17a9 973d cd4a 363d
00000130: 36a3 983d 5b48 6a3d 6a03 46bd 4f5b 73bd
00000140: ce0e 17bd 6dc5 b33d 4677 86bd 2314 4b3e
00000150: 8aaa 663b f74f 18be 361f 603e 06d1 49bd
00000160: d6a2 a23d 4453 823b f083 adbd ab4e 1abe
00000170: 31f6 433d 0681 ecba f3e6 ecbb 3952 b13d
00000180: 743d 32bd e84c 953d 67a4 b7bd 28ed f0bc
00000190: 9717 30be c1b5 d0bc 02e7 683e 5b3e c0bb
000001a0: c523 47bd 0cc2 30bd e4a8 cf3d d0be 4abe
000001b0: c2ba 4f3d 9648 35bc 4150 cabd 648d 143d
000001c0: fbf0 93bd d4a1 80bd c08b 01be 2103 a1bd
000001d0: 51e6 06be da63 533d 19b5 5d3c d0cd cdbc
000001e0: 1b8d c83d 67cc 3bbd 30c2 23be 1e33 773d
000001f0: b9f1 133e 704f 343e 7ae0 f63d 95ee 16bd
00000200: c136 18be 0972 99bc 45d0 43be 9c62 d4b9
00000210: 781a 313e 6673 debc c14f f6bd 34a6 74be
00000220: 8313 e2ba e742 2f3e 4d2e 5fbe 9585 41bc
00000230: fe15 c73c 150f e23b 24b3 bcbc d0f0 52bd
00000240: 8a32 1cbe de16 0b3e 66b0 01bd 005c 9abd
00000250: 1331 573d 518f 253e eb40 043e 70af 3f3d
00000260: bb22 253e 521e 71be 6d50 3bbd aadd f0bd
00000270: 1224 8ebd 13a5 a0bc 21a8 c03c 554b 163e
00000280: 727a eabd 2497 66bd 07af 0fbe 66cc 85bd
00000290: fdea 613d c7a9 da3c 36bf 123c a9fe 3c3e
000002a0: 3484 aebd 3a54 383e 12f5 ecbd ea41 6b3e
000002b0: 63d5 d13b a9e3 283d 793f 1abc be05 cabd
000002c0: 2c57 bd3d 2fe1 a8bd e82d febd 93eb 5dbe
000002d0: ea59 e03d c94a d5bd bb42 2fbd c163 05bb
000002e0: 0083 903e 10f0 973d 2ffa 2abd 1fb4 d93d
000002f0: 3493 193e 0044 b33d cc32 853c 249c 2cbc
00000300: 9343 453e d9e8 fabd 15fb 6abd 861a 303e
00000310: 4112 533e 1edd 073c b1cf 023e 7801 37bd

layers.2.weight f4 [200]
0.7960895 0.7644478 1.0082155 0.7025931 0.33465025 -0.09794201 0.047487907 0.2764931
0.087634884 0.009976911 0.43468702 0.8563075 0.4177206 0.9617537 0.25529572 0.77887225
0.024610968 0.8199485 0.24816605 0.2237854 0.6103856 0.19236274 0.34310192 0.5327605
0.05543159 0.40996632 0.82374316 0.7672632 0.49710682 0.10996598 0.33637428 0.24215357
0.12636565 0.34618133 0.22234309 0.9527465 0.996511 0.016960334 0.9495724 0.22594519
0.62798136 0.046509795 0.8993239 0.15151873 0.47063398 0.872912 0.10728908 0.24557337
-0.011247898 0.54761577 0.2728045 0.97243154 0.4834133 0.28543726 0.8747796 0.2891931
0.10829928 0.24881624 -0.022160506 0.689322 0.74823636 0.45689294 0.92920643 0.7429321
0.3118519 0.876275 0.20376961 1.0577202 0.9489199 0.6024133 0.72692794 0.5003685
0.058495864 0.7996466 0.7500565 0.085380815 0.79795283 0.33109185 0.90984553 0.37787277
0.23818217 0.5450161 0.06194465 0.34167477 0.28983587 0.52636784 0.6026664 0.9156637
0.37149432 0.17021073 0.871064 0.86065525 0.69667846 0.833934 0.25962004 0.26643512
0.88111025 0.15627891 0.32978386 0.15809195 0.48138094 0.5516935 0.68534553 0.48426616
0.6625782 0.78357935 0.8277665 0.63266057 0.4475849 0.085594214 0.1277531 0.33588344
0.26633307 0.03810554 0.78741014 0.54533046 0.91143733 0.3893124 0.5592632 0.038173903
0.1210813 0.97942716 0.5196904 0.48631063 0.84373176 0.8425224 0.03571998 0.8198631
0.3959959 0.04127202 0.21713851 0.45266944 0.3775973 0.27062842 0.18905118 -0.032120667
0.20902051 0.055486068 0.8339286 0.01714379 0.7733859 0.25926968 0.7073749 0.6652923
0.4943774 0.0669132 0.32107377 0.31748226 0.53115004 0.85078555 0.005091683 0.4321522
0.39675543 -0.072879694 0.8160224 0.25300932 0.9294814 0.16573817 0.738806 0.4216501
0.3782348 0.62128866 0.3769668 0.862673 0.15932849 0.5056088 0.61239624 0.39085752
0.43502334 0.5686216 0.22472434 0.7841018 0.64358354 0.01605787 1.0165248 0.42939797
0.7391032 0.5098608 0.16296381 0.07466903 0.47274053 0.40145224 0.41493037 0.9243399
0.4487071 0.4901475 0.55758435 0.71019787 0.843119 0.1599221 0.7671873 0.9430791
0.7814902 0.7538022 0.07413872 0.65252674 0.27145362 0.31483254 0.5892979 0.34376228
00000000: 85cc 4b3f dab2 433f 350d 813f 24dd 333f
00000010: 4757 ab3e d295 c8bd ae82 423d 8190 8d3e
00000020: eb79 b33d 3376 233c 4c8f de3e f836 5b3f
00000030: 79df d53e 7e35 763f 1fb6 823e 2c64 473f
00000040: f19c c93c 25e8 513f 3e1f 7e3e 0028 653e
00000050: 3b42 1c3f bdfa 443e 0eab af3e fe62 083f
00000060: 3c0c 633d 1be7 d13e d5e0 523f 5c6b 443f
00000070: c984 fe3e d835 e13d 4039 ac3e 1bf7 773e
00000080: ff65 013e ae3e b13e e8ad 633e 32e7 733f
00000090: 581b 7f3f 66f0 8a3c 2d17 733f 2d5e 673e
000000a0: 63c3 203f 0e81 3e3d 173a 663f ba27 1b3e
000000b0: f0f6 f03e 2977 5f3f 61ba db3d 9677 7b3e
000000c0: 1b49 38bc 8c30 0c3f 08ad 8b3e 46f1 783f
000000d0: f381 f73e d524 923e 8ef1 5f3f 1e11 943e
000000e0: 03cc dd3d afc9 7e3e f389 b5bc 6877 303f
000000f0: 6b8c 3f3f dfed e93e 79e0 6d3f cc30 3e3f
00000100: 0dab 9f3e 8f53 603f fba8 503e 6063 873f
00000110: 6aec 723f c237 1a3f f317 3a3f 2618 003f
00000120: 5c99 6f3d a4b5 4c3f b403 403f 23dc ae3d
00000130: a346 4c3f df84 a93e a3eb 683f 8a78 c13e
00000140: 07e6 733e 2d86 0b3f acb9 7d3d ffef ae3e
00000150: 5e65 943e 0bc0 063f 5848 1a3f f068 6a3f
00000160: 8134 be3e b94b 2e3e 0dfe 5e3f e753 5c3f
00000170: 8559 323f b37c 553f ebec 843e 2f6a 883e
00000180: 7190 613f 9407 203e 6ed9 a83e dbe2 213e
00000190: 9077 f63e c93b 0d3f ce72 2f3f bcf1 f73e
000001a0: ba9e 293f a898 483f 81e8 533f 0bf6 213f
000001b0: d929 e53e 054c af3d b5d1 023e eaf8 ab3e
000001c0: cf5c 883e 8e14 1c3d b693 493f c79a 0b3f
000001d0: f553 693f f453 c73e e02b 0f3f 3d5c 1c3d
000001e0: 79f9 f73d bdbb 7a3f 6e0a 053f b5fd f83e
000001f0: cefe 573f 8caf 573f 1d4f 123d 8ce2 513f
00000200: f9bf ca3e da0c 293d 8f59 5e3e 4ac4 e73e
00000210: 6f54 c13e cf8f 8a3e a296 413e f690 03bd
00000220: 7909 563e 5c45 633d 587c 553f 2271 8c3c
00000230: 9efc 453f ffbe 843e 8516 353f 9950 2a3f
00000240: 091f fd3e ca09 893d c863 a43e 098d a23e
00000250: 73f9 073f 15cd 593f 22d8 a63b 0e43 dd3e
00000260: 8723 cb3e f341 95bd d8e6 503f 708a 813e
00000270: 7ef2 6d3f 44b7 293e 6422 3d3f 86e2 d73e
00000280: fea7 c13e c60c 1f3f cb01 c13e 23d8 5c3f
00000290: 0227 233e 946f 013f 00c6 1c3f 7a1e c83e
000002a0: 61bb de3e 2f91 113f 231e 663e e5ba 483f
000002b0: e4c1 243f cb8b 833c 7c1d 823f 0dda db3e
000002c0: de35 3d3f 3d86 023f fcdf 263e 14ec 983d
000002d0: 0c0b f23e 268b cd3e c171 d43e 8aa1 6c3f
000002e0: f0bc e53e 9df4 fa3e d9bd 0e3f 87cf 353f
000002f0: a6d6 573f 9ec2 233e 6366 443f a26d 713f
00000300: be0f 483f 2ef9 403f 0bd6 973d fe0b 273f
00000310: f8fb 8a3e bb31 a13e 3adc 163f 9c01 b03e

layers.2.bias f4 [200]
-0.025992088 -0.00096736546 -0.004791553 -0.009669748 0.028242262 0.042820852 -0.011809256 0.086204685
0.011068544 0.015650658 -0.030159893 0.07360758 0.045380853 0.017952345 0.047344908 0.017599566
0.013266272 0.047178704 0.0051375777 0.08628368 0.008677814 -0.02189876 0.13792278 -0.0515168
-0.034026988 -0.00786149 0.089511774 0.121792614 -0.16777347 -0.03407423 -0.05172796 0.008645269
0.06503925 -0.085388 0.022100046 0.0994296 0.01485028 0.03297084 -0.13482784 0.068361245
-0.022673659 0.052971255 0.018130124 -0.039439943 0.04969446 -0.052815758 0.019711735 -0.014218143
0.003402193 0.04973158 0.0025590132 -0.007673783 0.035169173 -0.007828338 -0.028217057 -0.00010933224
0.031678017 -0.009160633 -0.05946869 0.10467083 0.03785161 0.08925384 -0.062262017 -0.077761546
0.0624632 0.023863943 0.049266987 -0.09398748 -0.08329274 0.0042765914 0.0797666 -0.04586444
-0.049592834 -0.0344181 0.084071934 -0.038944528 0.017767344 -0.063541904 0.06959433 0.042883582
-0.028554503 -0.02536243 -0.024482138 -0.038494997 -0.0040146476 -0.046940126 0.04626754 -0.052666858
-0.07284773 0.04257312 -0.07392349 -0.0023050667 0.15051197 0.021154257 -0.01726535 0.0009701565
-0.06287773 -0.007066051 0.04372687 -0.143474 -0.03334968 -0.047116015 -0.022551078 -0.09631909
0.04251314 -0.007360582 0.011718536 -0.010404352 -0.08010061 0.043578163 -0.0278867 0.043904446
0.02887239 -0.018182797 0.0061222874 0.030781167 -0.034467462 0.052684423 -0.039394956 0.037646815
-0.052131828 0.018916495 -0.033948816 -0.05858953 0.101762414 -0.05307629 -0.039832946 -0.00427555
0.06904032 -0.021474553 -0.00019022048 -0.018883329 -0.02541074 0.09915117 0.053769115 0.0028950477
-0.05055502 0.050564647 0.0186757 -0.020670231 0.04779716 -0.07019212 0.08569179 0.061729636
-0.008796235 -0.029241795 -0.11341925 -0.036184814 0.052764144 -0.13804704 0.032483388 0.049103856
0.0466064 0.030395508 0.027927589 -0.035948683 0.07611586 -0.02341099 0.0489263 0.01681828
-0.0027292327 0.06814668 -0.015887307 0.036626887 -0.01470413 0.030971413 0.060076915 0.078522384
-0.038738362 -0.027575647 -0.03468815 0.08064109 -0.049255956 -0.0036206178 -0.077761285 0.055911023
0.07565687 -0.030146165 0.01733398 -0.027120769 0.02332148 0.0029973637 0.02749491 0.019269561
0.004768373 0.056047983 -0.08973427 0.039320428 0.14348558 -0.023899434 -0.05543024 0.035404272
0.047128633 -0.019468613 0.052723758 0.078323975 0.09707839 0.09524691 -0.117676675 -0.018825319
00000000: 5ced d4bc cc96 7dba 7602 9dbb dd6d 1ebc
00000010: 515c e73c eb64 2f3d 9c7b 41bc 158c b03d
00000020: d758 353c cf35 803c e111 f7bc 92bf 963d
00000030: 46e1 393d cc10 933c bcec 413d f72c 903c
00000040: c75a 593c 753e 413d 2059 a83b 7fb5 b03d
00000050: 642d 0e3c 0765 b3bc a13b 0d3e 4803 53bd
00000060: e25f 0bbd 7bcd 00bc f351 b73d 686e f93d
00000070: cfcc 2bbe 6b91 0bbd b3e0 53bd e3a4 0d3c
00000080: 4c33 853d e7df aebd 280b b53c bfa1 cb3d
00000090: 974e 733c 6e0c 073d 4f10 0abe fb00 8c3d
000000a0: 1cbe b9bc 63f8 583d a085 943c c78b 21bd
000000b0: 6b8c 4b3d 5655 58bd 817a a13c 37f3 68bc
000000c0: 54f7 5e3b 57b3 4b3d 1eb5 273b 5c74 fbbb
000000d0: 8d0d 103d 6e42 00bc 7527 e7bc 4d49 e5b8
000000e0: cfc0 013d 7b16 16bc 7195 73bd a95d d63d
000000f0: 4a0a 1b3d b8ca b63d 7506 7fbd 7241 9fbd
00000100: 6ad9 7f3d 517e c33c 2ecc 493d 827c c0bd
00000110: 6295 aabd a622 8c3b ac5c a33d 5adc 3bbd
00000120: db21 4bbd fef9 0cbd e82d ac3d 4c84 1fbd
00000130: d28c 913c 4222 82bd 7987 8e3d b2a6 2f3d
00000140: 22eb e9bc dfc4 cfbc c48e c8bc eeac 1dbd
00000150: 4e8d 83bb 4a44 40bd 0883 3d3d 34b9 57bd
00000160: 3131 95bd 2761 2e3d 3365 97bd 9a10 17bb
00000170: cf1f 1a3e b14b ad3c 1070 8dbc 1a52 7e3a
00000180: 0ac6 80bd 558a e7bb f21a 333d d9ea 12be
00000190: ad99 08bd b9fc 40bd 0abd b8bc f142 c5bd
000001a0: 4222 2e3d 0931 f1bb 1aff 3f3c 0477 2abc
000001b0: ca0b a4bd 047f 323d a672 e4bc 26d5 333d
000001c0: ca85 ec3c 17f4 94bc 789d c83b c928 fc3c
000001d0: c12d 0dbd 9fcb 573d 9b5c 21bd 8c33 1a3d
000001e0: 2f88 55bd c4f6 9a3c ea0d 0bbd 93fb 6fbd
000001f0: d068 d03d 8666 59bd df27 23bd ea19 8cbb
00000200: 0365 8d3d 67eb afbc ec75 47b9 36b1 9abc
00000210: 2f2a d0bc c50f cb3d 013d 5c3d d7ba 3d3b
00000220: c812 4fbd e01c 4f3d c8fd 983c 9e54 a9bc
00000230: f4c6 433d e3c0 8fbd 2d7f af3d 37d8 7c3d
00000240: 151e 10bc 7d8c efbc 5a48 e8bd 8736 14bd
00000250: 371f 583d 345c 0dbe 4d0d 053d 2021 493d
00000260: 5ae6 3e3d 0000 f93c 66c8 e43c ed3e 13bd
00000270: a2e2 9b3d 68c8 bfbc f266 483d 7dc6 893c
00000280: eddc 32bb 7d90 8b3d 1926 82bc 1306 163d
00000290: 97e9 70bc c3b7 fd3c 3613 763d 58d0 a03d
000002a0: 1eac 1ebd 53e6 e1bc 2915 0ebd 2827 a53d
000002b0: 9dc0 49bd e347 6dbb 4f41 9fbd f502 653d
000002c0: fdf1 9a3d 17f5 f6bc feff 8d3c 602c debc
000002d0: b00c bf3c 6b6f 443b 013d e13c 33db 9d3c
000002e0: 0340 9c3b 9292 653d 9ac6 b7bd 750e 213d
000002f0: e2ed 123e bfc8 c3bc d20a 63bd 1204 113d
00000300: f409 413d a47c 9fbc def4 573d 5268 a03d
00000310: 09d1 c63d d010 c33d 7800 f1bd 8e37 9abc
