brewing/models/model4.pth (torch_old, 400884 bytes, 45 tensors)

embeds.0.weight f4 [150, 26]
000000 9d 19 9d 3d 24 ba da 3e 05 44 36 3d 2a ce 27 be
       0.07670901 0.4272014 0.044498462 -0.16387239
000010 18 1e 66 be b8 6f df be ec dc 21 3e 26 4f 9b be
       -0.22472417 -0.43639922 0.15806931 -0.30333823
000020 96 dd 85 3e e4 4c 53 be 00 3a 69 bf b0 c7 09 3f
       0.2614562 -0.206348 -0.91104126 0.53820324
000030 c9 87 8d be 55 df c3 3e 21 eb 6a bd a6 9d 90 3e
       -0.27642658 0.38256326 -0.057353143 0.28245276
000040 81 5b d0 3d 9c 8d 94 bd fe 30 89 be de 38 be be
       0.10173703 -0.07253572 -0.2679519 -0.3715276
000050 71 3e 19 bf cb dc 00 3e 2d f2 80 be 4a 40 59 3e
       -0.59860903 0.12584226 -0.25184765 0.2121593
000060 d1 dc 70 be f2 c2 81 bc 7b 49 07 3f 8e b4 b5 be
       -0.23521735 -0.015840027 0.528465 -0.35489315
000070 60 3d 77 3f a0 47 8c be 3d 11 a1 bf 51 fc ad 3e
       0.96578026 -0.27398396 -1.2583386 0.33981565
000080 be 60 2e bf 6c cb 2f 3f 71 b8 a6 be 52 87 2a bf
       -0.68116367 0.6866977 -0.32562593 -0.6661273
000090 22 40 01 3f 3f 69 b8 3d 79 2b 16 bf 98 6c 38 bf
       0.50488484 0.09004449 -0.58660084 -0.720407
0000a0 5e ce da 3e 8d d5 aa 3e b8 8b 5d be d3 e1 ad be
       0.4273557 0.3336605 -0.2163533 -0.33961353
0000b0 2c 7b 2c 3e 15 3b ad bf 37 4e 50 3f 53 0b 13 bf
       0.16843861 -1.3533655 0.81369346 -0.57439154
0000c0 73 b1 ec be 17 63 66 be 8f df 35 3f 10 f5 c7 3e
       -0.46229133 -0.22498737 0.7104425 0.39054155
0000d0 1e 99 7e 3f e5 10 b2 bf f9 50 9e bf 9f f5 af 3f
       0.9945239 -1.3911406 -1.2368461 1.3746833
0000e0 ee c2 e7 3e 5c c2 f4 3e 82 cc 95 bf 50 4a af bf
       0.45265907 0.47804534 -1.1703036 -1.3694553
0000f0 4d be 11 40 b6 13 15 c0 ae 51 d0 3f 26 81 d8 bf
       2.27724 -2.329328 1.6274927 -1.6914413
000100 ac c1 7a bd f9 d8 b0 bf e6 63 02 bf 69 55 b5 bf
       -0.061219856 -1.3816215 -0.5093368 -1.416669
000110 47 d8 74 3e 4a 98 20 c0 63 89 45 bf 5e 3e d7 3e
       0.23910628 -2.509295 -0.7716276 0.4203977
000120 a0 af 1c bf d2 50 a5 3f b8 3e 1e bf 95 34 cc bf
       -0.6120548 1.2915289 -0.6181445 -1.5953547
000130 bb 88 ea bf 32 eb 04 bd 0a 7e b0 3e 9d 6a 83 3f
       -1.8322977 -0.032450862 0.3447116 1.0266911
000140 0c 01 ce 3e e9 a3 b9 3f ad 75 8b bf 8d 1d 90 bd
       0.40235174 1.4503146 -1.0895287 -0.07036886
000150 b4 25 91 bf 21 1d ba 3e 17 dd 46 3c 19 b4 fe 3e
       -1.1339631 0.3635035 0.012137673 0.4974678
000160 b0 63 2c bf 61 8f c5 bf 19 93 04 3f 88 20 7c 3f
       -0.6733961 -1.5434381 0.51786953 0.9848714
000170 61 92 e3 3e b1 ae 82 3f bc 9a 8e 3f cc 7e 28 3f
       0.44447616 1.0209562 1.1140971 0.65818477
000180 e6 14 44 bf 89 48 b9 bd 9f 01 d3 3f af 47 f9 be
       -0.7659439 -0.09047038 1.648487 -0.48687503
000190 fe 02 c0 3e 03 fe 8f 3f 98 e0 5e 3f de 1b 39 bf
       0.37502283 1.1249393 0.8706145 -0.72308147
0001a0 fb 29 d3 3e ee af 2c 3f c0 d2 f9 3d d5 ac 9e 3e
       0.41242966 0.6745595 0.121984005 0.30991235
0001b0 0f 2f 5f 3f 35 36 cf 3e c0 c0 bb 3e 72 0e f5 3e
       0.8718118 0.40471044 0.36670494 0.47862583
0001c0 31 b9 b4 3e d3 ae e7 3e 8e 4c f8 3e 9f b8 d3 3e
       0.3529754 0.45250568 0.48495907 0.41351792
0001d0 5b fa 8b be cb 5d 1e bf 51 21 b2 be d3 6b bf be
       -0.27339444 -0.61861867 -0.34791043 -0.3738695
0001e0 20 61 07 3e d2 39 1f 3e 83 36 e0 3d 1a ca 87 3e
       0.13220644 0.155494 0.10947897 0.2652138
0001f0 e0 04 3d 3e 5f 2e 8b be 55 a8 f9 be aa df cc be
       0.18458891 -0.27183816 -0.4876124 -0.40014392
000200 d5 86 04 bf 5f 49 a5 be eb 6b 46 3e e8 03 3c bf
       -0.5176824 -0.3228254 0.19377105 -0.7344346
000210 6f a8 87 3e a3 88 0a 3e 85 45 a9 3e fb 5e 05 3e
       0.26495692 0.13528685 0.33060852 0.13024513
000220 5d 4f a4 3e c8 09 ae 3d 84 a1 0a 3e 24 86 52 be
       0.320918 0.084979594 0.13538176 -0.20558983
000230 d3 83 11 3e ce 52 0d 3f 07 8c bc be 7f be a6 bf
       0.14210443 0.55204475 -0.36825582 -1.3026885
000240 79 9e 42 3f 22 14 e0 3d 86 6c e1 3e d2 ee 63 be
       0.7602306 0.1094134 0.4402811 -0.22259071
000250 9a b2 1e 3e 52 14 17 be 1e f6 b8 3d cc 1c 08 be
       0.15497819 -0.14753845 0.09031318 -0.13292235
000260 4b 97 59 bf c5 e0 11 3e 36 af 91 be c1 bd 35 3d
       -0.8499648 0.14245899 -0.28453988 0.044370417
000270 83 c7 93 be 64 7d 12 bf 1c a7 4d be 56 d5 05 3e
       -0.28863153 -0.5722258 -0.20083278 0.13069662
000280 c9 4f 17 3f 29 a7 0d 3d 0a c0 3c 3f b9 f6 c4 3e
       0.5910612 0.034583244 0.7373053 0.38469484
000290 70 e0 a0 be 6b b1 2d be cf 7a 21 bf e6 51 d0 3e
       -0.31421232 -0.16962211 -0.63078016 0.40687484
0002a0 b6 9a 22 bf f7 81 12 be b6 6b 6e 3e 84 04 45 bf
       -0.6351732 -0.1430739 0.23283276 -0.76960015
0002b0 70 d1 3c be 94 5c 96 bf 80 83 8f bf d1 e2 89 3f
       -0.18439269 -1.1747003 -1.1212006 1.0772344
0002c0 45 fc d8 bf 5d 42 47 3f f0 e8 30 bf 11 16 87 bf
       -1.6951987 0.7783564 -0.69105434 -1.0553609
0002d0 f0 cc dc 3e 96 44 2d 3f f6 fd 24 bf ac 91 32 be
       0.43125105 0.6768278 -0.64450014 -0.17438382
0002e0 73 48 70 bf d6 db 47 bf 4d 75 a3 be 1f d2 50 bf
       -0.9386055 -0.7806982 -0.3192543 -0.8157062
0002f0 94 20 d7 3e f5 32 d8 be 84 44 9e be 24 7b 79 be
       0.42017043 -0.42226377 -0.30911648 -0.2436338
000300 a3 64 e9 be 02 bf 86 be 34 2d 29 3f 2f be 47 3e
       -0.45584592 -0.26317602 0.660846 0.19506143
000310 61 a5 1d bf 04 81 5d be af a1 ce be d1 80 6f bf
       -0.61580473 -0.21631247 -0.4035773 -0.93555933
000320 3e 62 9e be 03 ea e3 3e df a5 08 bf d1 43 78 3f
       -0.30934328 0.44514474 -0.533781 0.9697848
000330 4d 41 79 3e e2 00 cd be 54 53 8c 3e 0c 1f 30 bf
       0.24341317 -0.40039736 0.27407324 -0.68797374
000340 7c 8d 70 bf a7 78 d0 3d 3a 43 81 3f 9e 27 9f bf
       -0.9396589 0.101792626 1.0098641 -1.2433965
000350 63 9d e4 be 04 ed 66 be d9 a2 d0 3e ca 74 99 3e
       -0.44651327 -0.22551352 0.40749243 0.29971915
000360 e9 b1 41 bf a9 72 6a be bf 30 b9 be 83 d9 f5 3d
       -0.75662094 -0.22895302 -0.36170003 0.12004378
000370 71 98 6c 3e b1 42 23 3f 1f dd c0 3f 4c a7 93 3e
       0.23105027 0.6377364 1.5067481 0.28838575
000380 da d0 aa 3e 63 2a bc 3c 35 e2 08 3b 14 a2 ce be
       0.33362466 0.02296943 0.0020886783 -0.4035803
000390 b9 0e a1 3e 0e 79 3e be 70 d2 31 3f 69 f7 ac 3f
       0.31456545 -0.18600866 0.6946173 1.3513004
0003a0 89 4f 60 3f 76 20 5d bd 07 30 32 3f 0f 62 b6 3f
       0.8762136 -0.053986035 0.69604534 1.4248675
0003b0 c0 43 20 3f 97 4a a7 3f 19 4d 1b 3f 22 ad 8c 3f
       0.6260338 1.3069638 0.60664517 1.0990336
0003c0 69 55 14 3f 6e 65 f1 3d 9d 79 a9 be f2 92 5a 3f
       0.57942826 0.11786924 -0.33100596 0.8538047
0003d0 0d 31 1c 3f fa be b5 be b1 84 86 bf cd d5 c2 3f
       0.61012346 -0.35497266 -1.0509244 1.5221497
0003e0 52 9c 42 3f fe 1c dc 3e fd f1 d3 3a 7c e9 6f 3f
       0.76019776 0.4299087 0.0016170141 0.93715644
0003f0 ba 7a 57 3f 56 58 0d 3e 55 69 a5 bf 22 c4 db bc
       0.8417164 0.13803229 -1.292277 -0.026826922

embeds.1.weight f4 [5, 4]
000000 d5 80 2f bb a8 d0 cf 39 d0 ef 96 bb 4d 20 ee bb
       -0.002677967 0.00039637578 -0.0046062246 -0.007267034
000010 19 9d 48 be be 5b 22 bf be 2f c0 3e d9 dd a8 3d
       -0.19591178 -0.6342124 0.37536424 0.08245439
000020 13 b9 60 3c d7 98 82 be 12 85 1a 3f 3f cd 17 3e
       0.013716 -0.25507233 0.603593 0.14824389
000030 e0 34 3d bf 79 c1 c0 bd e1 3b 00 3f b3 52 8a be
       -0.73908806 -0.09411902 0.5009137 -0.2701622
000040 9c 8b 06 3f 0a 86 65 3f a4 c5 a8 be c6 cb a4 be
       0.52556777 0.8965765 -0.32963288 -0.32186717

bn_cont.weight f4 [8]
000000 d2 a5 0d 40 3c 9a d0 be aa 7d 4c 3f 11 f0 f8 be
       2.2132459 -0.4074267 0.7987925 -0.48620656
000010 e8 b1 3d 3f 26 78 2a bf 16 84 4a 3f 6d 82 a9 3f
       0.7409959 -0.6658958 0.791078 1.3242928

bn_cont.bias f4 [8]
000000 d4 2a 70 be 83 b2 1e bf 2e c8 52 bd 26 73 a9 3e
       -0.23453838 -0.6199114 -0.051460437 0.33095664
000010 69 28 3e 3f bd 77 e5 3e 16 4e 86 3d bc 7b 14 3f
       0.7428041 0.44817916 0.065578625 0.58001304

bn_cont.running_mean f4 [8]
000000 44 0c c6 bc f8 ef 20 bc f7 45 71 bb 51 11 98 bc
       -0.02417577 -0.009822838 -0.0036815384 -0.018562945
000010 79 1e bc bc e3 11 d0 ba b0 aa 66 bb ba 23 dc bb
       -0.02296375 -0.0015874471 -0.0035196953 -0.006718126

bn_cont.running_var f4 [8]
000000 d3 a8 75 3f ff f5 7d 3f 66 40 76 3f 8b 3d 58 3f
       0.9596073 0.99203485 0.96192014 0.8446891
000010 87 f7 3d 3f c1 cf 90 3f 7d 3c 2f 3f 9a 2f 7d 3f
       0.7420582 1.1313401 0.6845167 0.9890076

layers.0.weight f4 [200, 38]
000000 0c 63 aa be 2d a3 00 bf a7 ab 91 3e 9b 1a 13 bf
       -0.33278692 -0.50248986 0.28451273 -0.5746247
000010 9e b0 b6 be 45 6e 13 bf 3b 45 fa 3d 4e 07 d9 be
       -0.35681623 -0.5759013 0.12220236 -0.42388386
000020 d3 b4 24 3f 5b ac ad be 36 d9 d9 3e 71 ce 2c bf
       0.64338416 -0.3392056 0.4254853 -0.67502505
000030 d8 05 fc 3e 99 4d 4b 3e e8 da f0 3e 68 33 02 3e
       0.49223208 0.1985382 0.47042012 0.12714922
000040 1c 3c 3d be a8 2b f5 be fd 9b 75 bf 81 fd f4 bc
       -0.18479961 -0.4788487 -0.95941144 -0.029906036
000050 96 05 f6 be d5 a5 5b 3f 8a 15 2f 3f 01 19 14 be
       -0.48051137 0.85799915 0.6839224 -0.14462663
000060 50 1c 4e 3e 44 1f 60 bf c4 bd 3d bd 88 52 57 3f
       0.20127988 -0.8754771 -0.046323553 0.8411031
000070 63 c8 26 bf 84 bb a8 be 90 82 4f bf 65 b5 07 3d
       -0.65149516 -0.32955563 -0.810586 0.033131976
000080 82 d4 22 3f 87 57 27 bf 24 94 15 bf 16 2a 6d 3f
       0.6360551 -0.6536793 -0.5842917 0.92642343
000090 e4 5d 8b bd 5d db 17 bf f7 9e a0 3d d9 97 2f 3f
       -0.068050176 -0.59319097 0.0784282 0.68591076
0000a0 66 b0 46 3f 30 69 fd be 0b cb 58 3f 1c 83 f8 3e
       0.7761291 -0.49494314 0.8468482 0.4853753
0000b0 8a 22 c2 be f6 dc 10 3f 52 59 2e bf 5e c0 6a 3f
       -0.37916976 0.5658716 -0.6810504 0.9169978
0000c0 a0 12 9c be ba 44 f0 3e ed 47 b9 be a5 ef 12 3f
       -0.3048296 0.46927434 -0.36187688 0.5739692
0000d0 4c fe 6c 3f 58 e1 61 3f 1f e0 cc 3d e2 a8 44 3f
       0.92575526 0.8823447 0.10003685 0.76820195
0000e0 1e bb 45 3f 2c 13 23 bf 8f 9e 22 3f 65 7d 54 bf
       0.77238643 -0.6370113 0.6352319 -0.83003837
0000f0 98 00 a5 be 83 6e 11 3f 34 04 c7 3e 5d 35 13 3f
       -0.32227015 0.5680925 0.38870394 0.575033
000100 8c 63 6c bf 94 88 35 3e 73 b6 81 bd 53 87 34 bf
       -0.92339396 0.17727882 -0.063336276 -0.7051899
000110 23 4b fa 3e 96 e9 2e 3e 0e f9 2c bf 7f 35 fc 3c
       0.4888545 0.17081293 -0.6756753 0.030787228
000120 33 8e ad be f5 f1 21 3e b7 a1 ae 3e 47 6f fe be
       -0.33897552 0.15814956 0.34107754 -0.49694273
000130 8f 11 90 3e 6e 44 f2 be 6d bc b2 3e 28 33 c6 bf
       0.28138396 -0.47317833 0.34909382 -1.5484362
000140 73 ec da bf c9 9c 9e 3e a2 2c a0 bf 28 b1 0b 3f
       -1.7103409 0.30978993 -1.2513621 0.54567194
000150 fa e1 80 bf 2f bb 44 bf a0 39 d3 3d 4b 44 23 3e
       -1.0068963 -0.7684812 0.103137255 0.1594402
000160 aa b0 02 bf 58 8c b1 be db 7f 10 3e b9 b1 24 bc
       -0.5105082 -0.34677386 0.14111273 -0.010052138
000170 9d 67 33 3f 46 ca fe 3e b3 ea 8f 3e a6 cc 4f be
       0.70079976 0.49763697 0.2810875 -0.20292911
000180 09 61 e7 3d a1 9f 56 be bd 59 35 3e 92 af a9 3e
       0.11297805 -0.20959331 0.17710014 0.33141762
000190 74 d3 a5 3d f1 09 82 be 5d 61 e0 be 6b 2a a7 3e
       0.08096972 -0.2539821 -0.43824282 0.3264955
0001a0 c2 2a 73 be 77 d2 7c be 3f 96 31 bd 88 1a 6a be
       -0.2374678 -0.24689661 -0.043356176 -0.22861683
0001b0 6f c5 39 3f e4 ea ea be 11 57 97 be 94 44 f8 3e
       0.72566885 -0.45882332 -0.29558614 0.4848982
0001c0 4a d3 54 3f 03 cc f8 be 9e 32 17 bf e4 39 f9 be
       0.831349 -0.4859315 -0.5906161 -0.4867698
0001d0 f5 ae d3 be 01 cb 01 bf 74 0f f9 be f6 bd 28 bf
       -0.4134442 -0.50700384 -0.48644602 -0.6591486
0001e0 de a6 34 3f 74 f2 a9 be ec b6 74 3d 81 e8 02 bf
       0.7056712 -0.3319279 0.05974476 -0.5113602
0001f0 59 c1 75 be 89 7e 54 be cf db 19 3f 46 f2 8b bd
       -0.23999538 -0.20751394 0.60101026 -0.06833319
000200 d6 6f 65 bf 68 96 96 be 1a 99 b1 be 01 7e ec be
       -0.89623773 -0.29411626 -0.3468712 -0.46189883
000210 eb 68 1f bf f0 8a a2 3e 0e b4 4e be 1f fc 91 3e
       -0.6226947 0.31746626 -0.20185873 0.28512666
000220 a0 68 93 be ad 72 fb be 39 25 4c 3e 5e a9 30 bf
       -0.2879076 -0.49110928 0.19936074 -0.69008434
000230 f2 0e 1c 3f 96 98 e2 be 01 3b cf 3e 99 b8 19 3f
       0.60960305 -0.4425704 0.40474704 0.600473
000240 7b c5 78 bf c5 75 f3 be b8 3b 25 bf 6d de d2 be
       -0.9717633 -0.4755079 -0.6454425 -0.41185322
000250 e7 da f3 be 59 97 eb be a4 0a ba be 9b b8 66 3f
       -0.47627947 -0.46013907 -0.36336243 0.90125436
000260 2f 11 c8 be d3 3f 21 bf e2 c6 81 bf 00 04 86 bf
       -0.3907561 -0.62988013 -1.0138819 -1.0469971
000270 33 75 12 bf b5 65 9d bf f4 b0 20 3f d7 9c 55 bf
       -0.5721008 -1.2296664 0.6277001 -0.83442444
000280 eb 25 d9 be a7 97 42 bf a3 c9 4e bf 2c 9d 4d be
       -0.42411742 -0.76012653 -0.80776423 -0.20079488
000290 e0 78 5c 3f 90 41 bc 3e f7 43 29 bf e4 6d 81 bf
       0.8612194 0.3676877 -0.6611933 -1.0111661
0002a0 11 27 3f bd b6 d8 c0 bf 8b e9 33 bf ee 74 a2 3e
       -0.046668116 -1.5066135 -0.70278233 0.31729835
0002b0 e3 b8 a7 bf 42 d3 75 3f d7 6f cf 3e 24 0b e1 be
       -1.3103298 0.9602548 0.40515015 -0.43953812
0002c0 cb 04 0e 3e ef 75 3a bf 1a 62 c8 3e 9b 00 1c be
       0.13869016 -0.728362 0.39137346 -0.15234606
0002d0 64 39 6e be 38 cc 2d 3e a6 92 61 3c 36 e0 c4 bc
       -0.2326408 0.16972435 0.013767874 -0.024032693
0002e0 a2 e0 4e 3e 96 4a 48 be 28 65 ff bd 33 72 cb bc
       0.20202878 -0.19559702 -0.12470466 -0.024834728
0002f0 e0 4c 38 bf 0f f1 f3 be 5c 91 91 bd 82 6a 4a be
       -0.719923 -0.4764485 -0.07107803 -0.19767192
000300 85 f0 48 bf 26 3f 44 bf 43 56 f0 bd 90 19 0d bf
       -0.78492004 -0.76658857 -0.11735203 -0.5511713
000310 18 ea 71 3f 41 a3 22 be 93 d0 4d bf ce 62 50 3f
       0.94497824 -0.15882589 -0.80396384 0.81400764
000320 bf 7b 2a bf 28 65 0d bf b6 47 ae 3c fd a8 3d 3f
       -0.6659507 -0.5523248 0.021274429 0.7408598
000330 37 77 b4 bd ee 90 5d 3d fc 0b 5a bf dd 99 8d be
       -0.08811801 0.054093294 -0.85174537 -0.2765645
000340 4e 2a c7 be b3 d1 12 3f c2 0d 94 bf 90 cb 36 3e
       -0.38899463 0.57351226 -1.1566699 0.1785109
000350 0a 82 4a 3f 98 41 de be ce 1c 54 be 91 e9 58 3f
       0.79104674 -0.4340942 -0.20714113 0.84731394
000360 cd d1 94 3f a4 18 52 be c6 9b 93 3b c0 e1 00 3f
       1.1626526 -0.20517212 0.0045046536 0.5034447
000370 16 58 90 bf 3a 64 06 bf 9b 34 da 3e b2 04 2f bf
       -1.1276882 -0.52496684 0.4261826 -0.6836654
000380 cc 56 f2 be 02 ff 21 3d a4 df ba 3e 23 2e 39 3f
       -0.47331846 0.039549835 0.3649875 0.72336024
000390 0d 42 50 bf 28 ed 15 bf 6e d8 27 3e 58 8c a6 be
       -0.81350785 -0.58564997 0.16391155 -0.3252895
0003a0 e9 97 43 bf 7d 0e 41 bf 7b 21 4d be 1b 6b 3a bf
       -0.7640367 -0.7541273 -0.20032303 -0.7281968
0003b0 c8 38 27 3f 3d 19 66 bf 6b 13 1d bd 11 03 ca be
       0.65321016 -0.8988226 -0.038348597 -0.39455464
0003c0 0c 01 ea be 18 bd e9 3e 1f 03 08 3f d6 fa 99 3e
       -0.45703924 0.4565208 0.5312976 0.30074185
0003d0 4f 25 8d 3e 95 a4 27 bf c5 1a be be a2 fc 31 bf
       0.27567527 -0.6548551 -0.371298 -0.6952611
0003e0 62 6c 81 bf 87 bd 06 bf 60 2a 52 bf 8e 12 c1 bb
       -1.0111201 -0.52632946 -0.8209591 -0.0058921045
0003f0 a5 93 77 bf cf 2a ca 3e ea b6 36 3f e9 2e 79 bf
       -0.9670966 0.39485785 0.71372855 -0.97337204

layers.0.bias f4 [200]
000000 0b 43 95 3e 63 7c a2 be 87 63 f2 bd 90 58 2d 3f
       0.29152712 -0.31735525 -0.118353896 0.6771326
000010 4a 98 0a 3e 54 8b ac be b4 4e 2c bf 21 22 4b bf
       0.13534656 -0.3370005 -0.6730759 -0.7934895
000020 e2 b9 56 3f de 2d 29 3f b2 69 1c be 03 84 07 bf
       0.83877385 0.6608561 -0.15274695 -0.5293581
000030 1f 03 cc 3e 40 c4 87 3d 92 85 60 3e f3 aa 06 3f
       0.3984613 0.066292286 0.21925953 0.526046
000040 ac fc 09 bf ff 0f 8d bf 15 81 47 be fb 1c c6 3e
       -0.5390117 -1.1020507 -0.19482835 0.38693985
000050 a1 0a 8a be 8e c8 83 3e 0b 74 38 bf 57 1d 5e 3e
       -0.26961234 0.2573895 -0.7205207 0.2169088
000060 fc 3c ce 3e 6b b9 11 3f 9e 43 c6 bc b5 c1 3d 3f
       0.40280902 0.5692355 -0.024202164 0.741237
000070 8a e5 3b bf 79 19 be be 44 61 e3 be 96 38 cd 3e
       -0.73397124 -0.3712881 -0.44410145 0.40082234
000080 15 e4 14 bf 74 33 cb bb 75 c9 09 bf c5 f8 7b 3c
       -0.58160526 -0.006201202 -0.53823024 0.0153791355
000090 03 9f 25 bf b7 2b c9 bd d3 d0 50 bf 0e cf ee 3e
       -0.6469576 -0.09822791 -0.8156864 0.46642345
0000a0 4d 06 2c be 7a 13 a2 3e f5 72 6d 3d 35 e3 64 be
       -0.16799279 0.31655484 0.05797096 -0.22352298
0000b0 fa 78 2c bf 84 1e dc be da 75 80 3d 8f b7 b2 be
       -0.67372096 -0.42992032 0.062724784 -0.3490567
0000c0 49 cd 83 3e 8d ef 11 be 91 de ad 3e 56 31 e5 be
       0.25742558 -0.14251538 0.33958867 -0.44764203
0000d0 2c 23 70 bf 83 ea 1d bf 1c 66 e2 3e 2f 29 24 bf
       -0.9380367 -0.6168596 0.44218528 -0.6412534
0000e0 8c b8 e9 3e 69 97 68 3d 27 90 1c bf ba 60 b1 3d
       0.4564861 0.05678502 -0.6115746 0.08661027
0000f0 6c 56 73 be 2f 38 7b be 73 eb 35 3e 70 97 42 be
       -0.23763436 -0.24533151 0.17765598 -0.19003081
000100 a6 59 10 bf 35 f1 02 bf 5c 6e 56 3f ea 01 3a 3f
       -0.5638679 -0.511493 0.83762145 0.7265917
000110 6d c9 14 3f 86 a7 d8 3e 0b d8 17 3e c5 ea c2 3e
       0.5811985 0.4231531 0.14828508 0.3806974
000120 54 76 22 be 84 2c 15 3f ca 60 59 be e1 72 0a bf
       -0.15865451 0.5827105 -0.21228328 -0.5408154
000130 c4 a5 82 3f 7a ec c8 3e e4 8b 98 3e 86 10 80 be
       1.0206838 0.39242917 0.29794228 -0.25012606
000140 81 be 03 3f 88 2c 24 bf 86 36 d2 3e 3f 63 78 3f
       0.5146256 -0.6413045 0.41057223 0.9702644
000150 15 ed 8f be 63 9b d1 3e fb a8 dd 3e 37 c7 24 3f
       -0.28110567 0.40938863 0.43292984 0.6436648
000160 bd 0d ec 3e e1 47 e4 3e 8d 76 12 be 6e 9d 7a 3f
       0.4610423 0.4458609 -0.14303036 0.9789647
000170 60 8d 46 bf c1 99 89 bf 37 82 3c bd 49 7f c5 3e
       -0.7755947 -1.0750047 -0.04602262 0.38573673
000180 f3 3f 98 bd 2a 1b 5d be 89 36 0b 3f 3c 80 7c 3e
       -0.07434072 -0.21592394 0.5438009 0.24658293
000190 ca 51 6e bf a4 56 b5 3e ea a3 8e bd f6 b8 d1 be
       -0.9309355 0.35417664 -0.06964858 -0.40961426
0001a0 02 44 26 3f 64 08 83 3e c8 f2 00 3f 47 7e 1d bf
       0.6494752 0.2559234 0.50370455 -0.6152081
0001b0 5e 26 ed 3e f9 10 c7 be 64 37 db be b0 ba bb 3e
       0.46318334 -0.38880137 -0.42815697 0.3666587
0001c0 d1 bd d9 be 27 9d 31 bf fe cb 4a 3f bc 93 66 bf
       -0.4252763 -0.6938042 0.7921752 -0.90069175
0001d0 36 5f fd 3e 1f 5a 82 bd 22 ef 3e 3f 91 1a e1 3d
       0.49486703 -0.063648455 0.7458364 0.10991395
0001e0 f7 db d3 be b8 5b 8d 3e a1 92 d8 3e 27 98 17 bf
       -0.41378757 0.27609038 0.4229937 -0.5921654
0001f0 d0 76 a8 3c 22 28 eb 3e 09 be 37 3f 50 d5 14 3e
       0.020564467 0.45929056 0.71774346 0.14534497
000200 29 d4 31 3f 22 11 85 3f 94 96 0c 3f 48 65 da 3e
       0.69464356 1.0395854 0.54917264 0.42655396
000210 14 d7 44 3f 9c f7 2f 3f 4a d3 c1 be 70 b0 3b bf
       0.76890683 0.68737197 -0.37856513 -0.733161
000220 e4 c9 d6 3b 1c f1 14 bf a1 2a c3 be 91 fe 8d bc
       0.006554829 -0.58180404 -0.3811846 -0.0173333
000230 38 5b 2a bf ad ff 49 be e9 c8 d2 3e 35 be 5b be
       -0.6654544 -0.19726439 0.41168907 -0.21459277
000240 43 55 d9 bb 5e 02 14 bd 17 b9 4c bf c6 b9 f4 be
       -0.0066324784 -0.03613507 -0.79969925 -0.47797984
000250 27 e5 10 be 53 00 56 be 3d 5c 14 3f c4 ff 59 38
       -0.14149915 -0.20898561 0.57953244 5.1975032e-05
000260 ee 19 9f bb 1c 98 92 3e 3e 65 c5 3d 62 9f 20 be
       -0.004855386 0.28631675 0.09638451 -0.156858
000270 59 f1 b7 be 77 f9 8d 3e 3d cf d2 be f0 14 b5 3d
       -0.3592632 0.2772939 -0.41173735 0.08841884
000280 53 78 bd 3e f3 b7 3c bf 81 52 2f 3e 7e 41 df 3e
       0.37005863 -0.73718184 0.17121316 0.43604654
000290 4a 6e e2 3e 3f 13 e6 be 53 e6 e8 be 6b 63 ce be
       0.4422477 -0.4493656 -0.45488223 -0.40310225
0002a0 e5 c0 cb be 4c bf c5 be 99 bc ce 3e 23 d6 7a be
       -0.39795604 -0.3862251 0.40378264 -0.24495749
0002b0 12 f7 05 bf d2 a8 91 3d f0 e9 36 be f3 61 0c bf
       -0.52330124 0.07112278 -0.17862678 -0.5483696
0002c0 35 4e ec 3e 78 7e 29 bf d5 62 30 bf 3e b7 8f be
       0.46153417 -0.662086 -0.68900806 -0.2806949
0002d0 fd c6 93 3e 4d 0c 03 3f cc a6 06 bf d4 32 31 bf
       0.28862754 0.51190645 -0.5259826 -0.6921818
0002e0 b7 b5 12 3e 26 2a 30 bf bc 2d 4b 3f ad 24 05 3d
       0.14327131 -0.68814313 0.7936666 0.03250568
0002f0 2e 8b 54 3e 39 2a 3b 3f e7 20 ec bd ba 4f aa 3e
       0.20756218 0.731113 -0.11529713 0.33263952
000300 b2 2f 1e 3f 26 de 46 bf d1 65 54 3f bb 85 32 3f
       0.6179153 -0.7768272 0.8296786 0.69735307
000310 d8 3e 5a bf 18 00 c1 be 78 f0 ba 3e ea f0 f3 3d
       -0.8525214 -0.37695384 0.36511588 0.11911185

layers.2.weight f4 [200]
000000 96 cb a7 3f 48 90 a7 bc c3 e5 83 3f 43 77 00 40
       1.3109004 -0.02045454 1.0304493 2.0072792
000010 ac 70 02 3f 1a bc db be 4f d1 85 be d0 27 ef be
       0.50953174 -0.42916948 -0.26136252 -0.46710062
000020 89 21 30 3f bb 5e 1e 3f 85 04 81 3d 05 b9 a8 be
       0.6880117 0.618633 0.0629969 -0.3295366
000030 c2 ca 83 be c3 ac 53 3f b3 1c ad bd df 41 2a bc
       -0.2574063 0.8268549 -0.084527396 -0.010391681
000040 8a e0 ae be 12 9c c8 3f d8 87 40 be 7f 8f 92 3f
       -0.34155685 1.5672629 -0.1880182 1.1450042
000050 e8 5c 76 3f 2f d6 46 3e d6 ba 58 3f 9d d5 25 3f
       0.96235514 0.19417642 0.8466009 0.64779073
000060 53 18 0f 40 ab f9 c9 3f 63 84 8d bf e9 34 bc 3f
       2.2358596 1.5779318 -1.1056026 1.4703647
000070 06 37 0a be 90 80 87 be a7 83 c9 3f 59 36 7e 3f
       -0.13497552 -0.26465273 1.5743302 0.9930168
000080 a6 3a af 3e 75 e6 e0 3f 95 c4 4c 3f 12 3d a0 bd
       0.34224433 1.757033 0.7998746 -0.07824148
000090 c2 b6 a0 3f ee 10 18 3f 44 b8 9a be 26 2c 66 be
       1.2555773 0.5940083 -0.3021871 -0.22477779
0000a0 82 79 dd 3f 6a 43 b6 3e 2e 1c 62 3f 53 c8 e9 3d
       1.7302706 0.35598308 0.8832425 0.11415162
0000b0 22 75 c2 3f a3 09 81 bd b5 67 c8 3e a4 87 c3 3d
       1.5191996 -0.06300666 0.39141622 0.09547356
0000c0 a5 52 e2 3e bc 96 67 3f 19 ed 2e 3f 8c 9f bc 3f
       0.44203678 0.9046438 0.6833053 1.473619
0000d0 8f c6 c2 3e aa b8 c6 3e ae 0a 39 3e 1f ec 9c be
       0.38042113 0.38812762 0.1807048 -0.30648896
0000e0 3b 73 08 3e b2 c6 a7 bc fb 27 27 3e e0 4e 65 3f
       0.13325207 -0.020480487 0.16323845 0.8957348
0000f0 57 00 2a 3f 4d 1c 8e 3e ef 4a 28 bf 64 e1 b9 3f
       0.6640677 0.27755967 -0.6573934 1.4521909
000100 da 04 19 be 1b 67 b3 3e c8 57 aa 3f 3b c4 b2 3f
       -0.14943257 0.350396 1.3308039 1.3966135
000110 03 04 17 3f 06 7c 5e 3f de 89 69 3e 31 4f a1 3e
       0.58990496 0.86907995 0.22806498 0.3150573
000120 20 46 c7 3f 08 f9 53 3e d5 7a 26 3f a4 b9 73 3d
       1.5568275 0.20700467 0.65031177 0.059503213
000130 9a b8 ed be 60 0a 5f 3d 89 89 23 3f 66 13 1e 3f
       -0.46429902 0.054453254 0.63881737 0.6174835
000140 bb ad 74 3e 74 5f be bd 40 5f 77 3e 4c ba b0 3f
       0.23894398 -0.0929555 0.24157429 1.3806853
000150 6f 20 a8 3f 57 c7 24 3f 94 c3 6e bf 44 6e 4b 3f
       1.3134898 0.6436667 -0.9326718 0.79465127
000160 41 04 16 3f b0 1f 37 3f 21 72 82 3f 26 2e 95 3f
       0.5860024 0.71532726 1.0191079 1.1654708
000170 b0 6a 04 be 1a 70 bd 3e b2 f8 ed be 42 62 e3 3e
       -0.12931323 0.3699959 -0.46478802 0.44410902
000180 89 89 d0 be f7 d4 e9 be f0 8f 57 3f b5 49 be 3e
       -0.4072993 -0.45670292 0.84204006 0.3716561
000190 59 fb 85 bd 26 c1 97 3f 0a e2 a3 3e 77 fd 15 3f
       -0.065420814 1.1855819 0.32008392 0.5858988
0001a0 ec 28 b7 3e 40 39 f7 3e 15 8b cc 3e 11 8d 40 3f
       0.35773408 0.48285866 0.3994986 0.7521525
0001b0 8e 02 11 bf 4f aa b3 3f 49 ab 3f 3f e2 45 90 3f
       -0.56644523 1.4036349 0.74870735 1.1271327
0001c0 e3 2c 6d 3e 3f 9c 01 be 9f d3 10 3f a5 dc e7 bd
       0.23161654 -0.1265726 0.5657291 -0.113213815
0001d0 77 6b 36 3e 0a 7a 08 3e 4e fc 7e 3f 60 c3 a2 3f
       0.17814432 0.13327804 0.99603736 1.2715874
0001e0 07 2e a9 be af e4 3a 3f e3 74 2b 3d d5 09 95 bf
       -0.3304293 0.73005193 0.04185952 -1.1643625
0001f0 a7 03 6e 3f a6 63 19 3f be d6 b6 3f 63 5f 77 3f
       0.92974323 0.59917676 1.4284284 0.96629924
000200 57 55 c1 3e 8b 39 44 3d 34 20 c3 3e 7f 84 b5 3f
       0.37760422 0.04790644 0.38110507 1.418106
000210 56 76 0d be d3 9f bd 3f fa bb 50 3f ad 79 5f 3d
       -0.13814673 1.48144 0.8153683 0.0545594
000220 b1 1f fd bc 1a c1 ed 3e 3f 14 9a be 18 8b 93 3f
       -0.0308989 0.46436387 -0.30093572 1.1526823
000230 3d c2 54 3f 69 29 04 bf d7 c1 1b 3f fc ce e8 be
       0.83108884 -0.51625687 0.6084265 -0.45470417
000240 43 a0 83 3f e4 ab d2 bd e2 dd 1a 3e c4 27 9f 3e
       1.0283283 -0.10286692 0.15123704 0.31085026
000250 20 05 f2 be 33 d2 19 3f d3 48 3e 3f 47 9a 29 be
       -0.47269535 0.60086364 0.7432987 -0.16562758
000260 df 0a 0e 3f bc 44 48 3f 56 0b 9e 3f 53 eb 21 3f
       0.5548534 0.7822988 1.234721 0.632497
000270 f7 83 cb 3d e2 fc 92 3f 2c 3a 44 3f a1 b9 ea 3e
       0.0993728 1.1483424 0.76651263 0.4584475
000280 00 0a 96 be 5a 66 05 3c e7 24 3a 3f 2e 98 a8 3f
       -0.29304504 0.008142078 0.7271256 1.3171442
000290 84 19 22 3f 3f 05 e4 3f a4 12 fe 3f 85 d2 b9 be
       0.63320184 1.7814101 1.9849439 -0.36293426
0002a0 15 7c 0b 3f cd 61 99 3f 82 aa 18 3f f9 c3 cf 3f
       0.5448621 1.1982971 0.59635174 1.6231681
0002b0 31 fd 4a 3f 36 db 69 3f 98 f9 29 3f 23 b9 c1 be
       0.7929259 0.91350114 0.66396475 -0.3783656
0002c0 eb 91 57 3f 23 d5 b6 be 9d 00 7a be b7 78 19 3f
       0.8420703 -0.35709485 -0.24414296 0.5994982
0002d0 22 7c 0a 40 b0 d3 9a be 58 cf e3 3e 0d 00 b5 3e
       2.1638265 -0.3023963 0.44494128 0.353516
0002e0 25 a8 41 3e cf 38 7f bd 78 82 dc 3f 0c 93 ec 3e
       0.18911798 -0.062310036 1.7227316 0.46205938
0002f0 3f ec 68 3f 86 e1 93 3f 15 b1 a6 3e ef f9 39 3f
       0.9098548 1.1553199 0.32556978 0.72646993
000300 2e 34 d1 3f dc a8 8d 3f 20 b2 3e 3e 38 ac 1e 3f
       1.6344049 1.1067157 0.18622637 0.61981535
000310 c6 bb 9b bf 4f ac ee be 7f 44 56 3f fc 8c 6b 3f
       -1.2166679 -0.46615836 0.83698267 0.92012

layers.2.bias f4 [200]
000000 80 31 f6 bd af 31 2e bf 85 06 1f bf 40 b6 19 3f
       -0.1202116 -0.6804456 -0.62119323 0.60043716
000010 2b 55 1a 3d d2 a8 3a 3f aa 35 57 3f 57 1e f0 3e
       0.03767888 0.7291385 0.8406626 0.46898147
000020 8f a2 20 3f 67 ac 3c 3f b0 5f 0a 3f 47 ea c1 3d
       0.62748045 0.73700565 0.5405226 0.09468513
000030 1a c2 41 3f 65 2f 89 bd 67 fc c2 3e e5 89 49 3e
       0.756868 -0.06698493 0.38083193 0.19681509
000040 c2 be b0 3e c3 e1 bf be 85 c5 10 3f b4 70 03 bf
       0.34520537 -0.3747693 0.5655139 -0.51343846
000050 0d 95 30 bf 31 22 be be 80 ad b9 be 85 b4 24 3f
       -0.68977433 -0.3713546 -0.36265182 0.6433795
000060 7d cd bb 3e 31 7f 30 3f ff d8 13 bf c8 2a 48 3f
       0.36680213 0.6894408 -0.57752985 0.7819028
000070 19 51 28 3f f1 f6 2f 3f 32 d8 fe bd 28 09 2e bf
       0.65748745 0.6873618 -0.1244358 -0.6798272
000080 94 48 d5 3e 1e da 2d 3f 96 10 3b bf 49 86 9c 3e
       0.41656935 0.67910945 -0.73072183 0.305712
000090 a0 66 91 be 74 01 13 3f 26 a9 9f 3e 18 92 2f 3f
       -0.2839861 0.5742409 0.31183738 0.68582296
0000a0 d4 df 15 3f 2a 62 a9 3e 05 f7 e7 be c5 80 83 bc
       0.5854466 0.33082706 -0.45305648 -0.016052613
0000b0 87 38 c3 be dd b0 43 3f 97 24 05 bf 09 10 3a bf
       -0.38129064 0.76441747 -0.52008957 -0.7268072
0000c0 e8 b4 99 bd 20 e1 8b 3e 09 5b 2c 3f 42 bf c3 3e
       -0.07505208 0.27320194 0.6732641 0.38231856
0000d0 57 f9 3b 3f cd 32 ca be 36 6e 42 be eb ab 2d 3f
       0.7342734 -0.39491883 -0.18987355 0.6784045
0000e0 06 fb 54 3f fc 3a b2 be 6b 6e b2 3e 0d 79 17 3f
       0.8319553 -0.34810627 0.34849867 0.59169084
0000f0 da 28 86 3d d8 48 b8 be 8b 75 bd be 4b a3 da be
       0.065507606 -0.35993075 -0.3700374 -0.42702708
000100 41 05 c3 3e 95 c1 61 3e 6b 23 8a be 0a 3e 02 3f
       0.38089946 0.22046502 -0.26980147 0.50875914
000110 71 55 4a 3f cf a6 07 bf 49 fe 36 bf 2a 54 6c 3f
       0.79036623 -0.52988905 -0.7148176 0.92315924
000120 e1 5f 00 bf d2 83 83 be a2 2a d5 be b8 ee 6a 3e
       -0.501463 -0.25686508 -0.4163409 0.22942626
000130 65 5a 0a 3f 08 15 29 3f 18 63 8a 3d 5d 92 ce be
       0.5404418 0.66047716 0.06757182 -0.4034604
000140 9a aa 08 3f e3 5a c5 3e 1a 93 3f 3f 3c 2c a8 3e
       0.5338532 0.38545904 0.74833834 0.32846248
000150 10 47 a9 be 31 7b 97 3e ca d8 21 bf be cf 82 3f
       -0.3306203 0.29586175 -0.6322142 1.0219648
000160 5f 6a 7c 3f 54 26 bd be ee bc da bb 8e d2 27 bf
       0.9859981 -0.36943305 -0.006675354 -0.65555656
000170 b8 5d 1b 3f 48 2f 09 3f 70 68 41 3f 20 7c d5 3e
       0.6068988 0.5358777 0.75549984 0.41696262
000180 ce e1 e7 3e f1 63 14 3f 34 07 87 3f 50 41 56 3f
       0.45289463 0.57965 1.0549073 0.8369341
000190 45 06 ce 3e d3 89 46 3f 8d 88 14 3f 36 71 26 bf
       0.40239158 0.77554053 0.5802086 -0.65016496
0001a0 8f 7f f3 3e 66 e1 52 3f 65 f3 aa 3f 24 02 21 3f
       0.47558257 0.8237518 1.3355528 0.6289389
0001b0 cb b6 3b 3f 86 56 b3 be 16 15 3e bd 71 3a 08 bf
       0.73325795 -0.3502695 -0.046406828 -0.53214175
0001c0 30 98 ac bc ec a3 b9 be 21 d1 2b 3f 01 41 23 3f
       -0.021068662 -0.36257875 0.6711598 0.63771063
0001d0 ae b8 18 bf 67 11 8f be a2 d9 73 3e 55 ab 2a be
       -0.596568 -0.27942964 0.23813489 -0.1666692
0001e0 67 04 2a bf b8 53 da be 87 7e 19 3f 2f 60 7d 3d
       -0.6641297 -0.42641997 0.5995869 0.061859306
0001f0 97 ac 21 bf e7 53 14 3f e2 12 7e 3f 15 a0 c7 be
       -0.63153976 0.57940525 0.9924756 -0.3898932
000200 dd fb 1f 3f 5d cf 2c 3f 9e 61 4f 3f ac 39 e6 3e
       0.6249369 0.6750391 0.81008327 0.44965875
000210 e2 d1 58 3f cf ca 2c 3f 18 12 62 be da 9e 12 3f
       0.84695256 0.6749696 -0.22077215 0.5727364
000220 95 8b 39 3f ca e1 2b bf 82 ef cd be 50 ce 9a be
       0.7247861 -0.671414 -0.40221792 -0.3023553
000230 41 44 13 bf 2c 50 f6 3e 9a 9a e9 be c9 80 20 3f
       -0.5752602 0.4810804 -0.45625764 0.6269651
000240 7d ff db be ff 64 26 3f 32 c4 19 bf 43 45 af be
       -0.4296836 0.6499786 -0.60064995 -0.3423253
000250 6b d2 2e 3f b1 cd 9b be 2f 0f 3d 3f d9 c4 c6 be
       0.6828982 -0.30430368 0.73851293 -0.38822058
000260 4f d0 0e bf 36 c6 1c 3f d2 3d c2 bd 11 08 91 be
       -0.55786604 0.61239946 -0.094844475 -0.28326467
000270 b0 13 0c 3f 90 d1 49 3f ed 87 87 3e 96 72 62 3f
       0.5471754 0.7883539 0.2647089 0.88456094
000280 25 dc e6 3e 45 bf 88 bf 35 33 fb be 99 69 14 3f
       0.45089832 -1.0683371 -0.49062505 0.5797363
000290 e4 f0 0f bf 78 74 eb be b3 8d a3 be 28 e4 b7 3e
       -0.56226945 -0.45987296 -0.31944045 0.35916257
0002a0 fe 65 d3 3e fb 46 14 bf e8 36 e5 3e 2b cb e7 be
       0.4128875 -0.5792081 0.44768453 -0.45272192
0002b0 a5 b9 33 3f 75 de 34 3f 49 07 b0 be 7a 9e d4 3e
       0.70205146 0.7065194 -0.34380558 0.41527158
0002c0 f8 36 2d 3f 53 a1 df 3e 36 71 05 3f 82 e7 98 be
       0.67662 0.43677768 0.5212587 -0.29864126
0002d0 7a d0 fa 3e 2c 17 19 3f 68 91 df be ec 44 8a 3e
       0.4898718 0.5980098 -0.43665624 0.27005708
0002e0 6e 2c 1e bf f1 e2 da 3e 94 cc c0 be fd a6 07 bf
       -0.61786544 0.42751268 -0.3765608 -0.5298918
0002f0 f6 04 26 bf c2 a3 02 bf 06 79 2c 3f 41 67 dd 3e
       -0.6485132 -0.51031125 0.6737217 0.4324284
000300 42 8b 1c 3f c6 ca 1c 3f f4 ba 75 3f 8f 53 00 3f
       0.6114999 0.6124691 0.9598839 0.501275
000310 a0 c2 0b bf 2b c0 3e 3f dc e5 ec 3e b8 ee c3 be
       -0.5459385 0.74511975 0.4626912 -0.38268065

layers.2.running_mean f4 [200]
000000 5e 7c a2 3f 35 77 bc 3f 7c 26 51 3f 41 2d 38 40
       1.2694204 1.4723879 0.8169935 2.877762
000010 23 35 65 40 6d be 01 40 c9 b7 89 3f cf b0 38 3f
       3.5813682 2.0272477 1.0759212 0.7214479
000020 a8 cc 3f 40 fc 7b 57 40 0b c6 0a 3f 44 bf af 3f
       2.9968662 3.3669424 0.5420844 1.3730245
000030 30 d8 d8 3f a7 f3 2d 40 24 27 73 3f 0b 53 dc 3f
       1.6940975 2.7179964 0.949816 1.7212843
000040 a3 12 c9 3f 06 a2 d3 3e 19 34 da 3f 72 68 bf 3f
       1.5708812 0.41334552 1.7047149 1.4953749
000050 34 c0 da 3f 49 b4 25 40 0b 83 3b 3f 7e d3 c5 3f
       1.7089906 2.5891287 0.7324683 1.5455167
000060 5e c2 b6 3f 7a f9 21 40 ff 46 b2 40 04 4d 46 40
       1.4278066 2.5308518 5.5711665 3.0984507
000070 f2 70 a8 3f aa b1 c2 3f aa cf 87 3f 45 28 9f 3f
       1.3159468 1.5210469 1.0610249 1.2434164
000080 94 fe 98 3f f0 08 2b 40 a8 eb 12 3f 48 af 84 3f
       1.1952691 2.6724205 0.5739083 1.0365992
000090 7f 3b 38 3f f6 ec 0d 40 93 b1 17 3f 95 1d b7 3f
       0.71965784 2.217588 0.5925533 1.4305903
0000a0 0c 94 68 3f d1 aa 3f 40 d7 47 0a 40 69 ae 92 3f
       0.908509 2.9948008 2.1606348 1.1459476
0000b0 4f b8 c8 3f e6 62 d3 3f 72 ed af 3f 09 ee 3a 3f
       1.5681247 1.6514556 1.3744338 0.7301946
0000c0 5f 7b e4 3f 04 e7 0e 40 79 73 3b 40 4e 88 04 40
       1.785015 2.23285 2.928923 2.0708194
0000d0 cc 6e 85 3f 36 00 3e 3f 46 58 06 40 ad a6 02 40
       1.0424438 0.7421907 2.0991378 2.041423
0000e0 31 35 1c 40 41 58 17 40 e0 92 39 3f 35 56 05 40
       2.4407465 2.3647616 0.7248974 2.0833867
0000f0 e1 25 5d 3f 10 fb 89 3f 53 c9 37 40 2d 80 1f 40
       0.86385924 1.0779743 2.8716629 2.4921982
000100 3d 98 8f 3f af 76 10 40 43 d0 2e 40 b9 05 96 3f
       1.1218334 2.2572439 2.7314613 1.1720496
000110 7f af 7f 40 bd 10 34 40 a4 cd a3 3f b5 c8 e2 3f
       3.9950864 2.8135216 1.2797132 1.7717501
000120 51 a9 97 3f e6 1a 5f 40 13 b6 d0 3f 84 9f 5d 3f
       1.1848546 3.4860168 1.6305565 0.86571527
000130 d3 27 34 40 ac da 0a 40 b6 d4 01 40 2f cc 0e 40
       2.8149307 2.1695967 2.0286078 2.2312124
000140 0b c4 e0 3f 84 a6 32 3f 1c 18 16 40 7c 89 60 40
       1.7559828 0.6978533 2.3452215 3.5083914
000150 34 7b 11 3f 5e ab 15 40 cc 7a 53 40 45 09 7c 40
       0.5682862 2.3385844 3.30437 3.9380658
000160 38 d5 1c 40 0d 5c 92 3f c8 1d fc 3f 52 5f 09 40
       2.4505138 1.1434342 1.9696589 2.146443
000170 c2 e9 96 3f dc 01 0a 3f a6 6a a0 3f c3 97 03 40
       1.1790087 0.5390909 1.2532547 2.0561378
000180 a2 da 52 40 b8 ce 55 3f 34 cf 20 40 1c 03 b3 3f
       3.2945943 0.8351855 2.5126467 1.3985324
000190 0b e8 80 3f bc 1e db 3f ba ba 46 3f 1b c1 b1 3f
       1.0070814 1.7118754 0.7762867 1.3887056
0001a0 64 7f 09 40 a8 64 d1 3f 7d e8 55 3f 2c 7d 71 3f
       2.1484003 1.6358843 0.83557874 0.9433162
0001b0 ad 04 f9 3f f0 0e 2a 3f 25 a0 2c 3f c8 93 8f 3f
       1.9454552 0.6642904 0.6743186 1.1216974
0001c0 b4 d3 af 3f 89 44 95 3f ac fc 22 40 2d e4 ad 3f
       1.3736482 1.166154 2.5466719 1.3585259
0001d0 ab c7 35 40 72 d4 a1 3f 76 95 36 40 bc 5f 2e 40
       2.8403118 1.2642958 2.8528724 2.7245932
0001e0 a3 6d 02 3f 59 2b 35 3f 03 8f b5 3f b9 18 8d 3f
       0.5094854 0.7076927 1.4184269 1.102317
0001f0 cf cd ca 3f 13 54 d1 3f 8f 65 28 40 70 7b 64 3f
       1.5844058 1.6353782 2.6311986 0.8925085
000200 81 87 ee 3f 40 60 1f 40 c1 5b d0 3f 33 27 0d 40
       1.8635103 2.4902496 1.6278001 2.2055175
000210 01 a7 2d 40 e0 c9 40 40 40 a9 d6 3f de 6d 87 3f
       2.713318 3.0123215 1.6770401 1.0580404
000220 c9 a6 83 3f d2 fa b8 3e 78 e9 56 3f 9c 41 10 40
       1.0285274 0.3612886 0.83949995 2.2540045
000230 f6 ba b7 3f e1 98 0f 40 74 59 f7 3f dc fc a7 3f
       1.4353931 2.243706 1.9324174 1.3124042
000240 83 d0 4e 3f 8e e5 e4 3f 3e 84 7d 3f 8b e3 ed 3e
       0.80786914 1.7882555 0.9902991 0.46462664
000250 25 0a 00 40 14 19 04 40 cd 07 89 40 0b 2a b7 3f
       2.0006192 2.0640306 4.2822022 1.4309705
000260 b2 41 19 40 b7 ae 07 40 6f 3a 47 40 f8 e2 b9 3f
       2.3946347 2.1200387 3.1129415 1.452239
000270 43 c1 17 40 ad 68 ef 3f 2f ae 95 3f 6d 2e 32 40
       2.3711708 1.870382 1.1693782 2.7840836
000280 cf bf 30 40 be d1 0d 40 88 de 0c 40 14 54 16 40
       2.761707 2.2159266 2.2010822 2.3488817
000290 a5 06 b2 3f d9 ba 7f 3f a4 d3 aa 3f c7 09 fd 3f
       1.3908278 0.9989448 1.3345838 1.9768609
0002a0 26 d5 9a 3f f0 71 09 40 ab 44 d6 3f f2 18 01 3f
       1.2096298 2.1475792 1.6739706 0.5042869
0002b0 93 41 02 40 3f 02 fe 3f 1d 5d ad 3f ea 9d 31 3f
       2.0352523 1.9844435 1.3544041 0.6938158
0002c0 92 a0 47 40 7e bb 2d 40 7f f9 d0 3f cb 91 db 3f
       3.1191754 2.7145686 1.632614 1.7153867
0002d0 51 a5 25 40 fd 5f 03 40 69 2d 2a 3f 5a ed 0f 40
       2.588215 2.0527337 0.6647554 2.2488618
0002e0 7a 9e 13 3f 97 e6 9d 3f 2b 01 de 3f 92 18 fa 3f
       0.5766369 1.2335995 1.7344106 1.9538748
0002f0 4e 05 08 40 5d f4 4d 40 2f 11 2c 40 68 a8 51 3f
       2.1253238 3.2180398 2.6885488 0.8189759
000300 a5 56 21 40 6c 73 d8 3f 78 85 26 40 d4 f1 39 40
       2.5209134 1.6910224 2.6018963 2.905385
000310 a9 08 cb 3f b6 6e 10 40 4e 41 04 40 05 46 22 3f
       1.5862018 2.2567573 2.066486 0.6338809

layers.2.running_var f4 [200]
000000 1a 36 81 40 2f 08 e2 40 c2 60 34 40 e7 d1 3e 41
       4.037854 7.063499 2.8184056 11.926246
000010 38 a8 b2 41 6e d4 03 41 cd bd 16 40 08 00 f6 3f
       22.332138 8.239363 2.3553345 1.921876
000020 9e 15 17 41 a8 79 93 41 e8 e8 94 3f d8 bf 89 40
       9.442778 18.434402 1.1633577 4.3046684
000030 95 0e 6f 40 6d 05 66 41 e8 1b 1d 40 3a 38 99 40
       3.735265 14.376325 2.4548283 4.7881136
000040 51 51 91 40 bf d9 aa 3f 58 a7 a2 40 7f 03 ec 40
       4.5411763 1.3347701 5.0829277 7.375427
000050 60 8e 35 41 1d 56 27 41 6f f0 2c 40 f0 30 dc 40
       11.3472595 10.458524 2.702175 6.880974
000060 c3 67 d7 40 a1 52 24 41 bd c7 e0 41 eb da 80 41
       6.731416 10.270173 28.097528 16.106894
000070 ab fe 62 40 91 4c 17 41 bc e8 85 40 8f 8d 29 40
       3.5467937 9.456193 4.18466 2.649265
000080 47 9a 83 40 6a 86 72 41 38 34 06 40 0a e0 34 40
       4.1125827 15.157816 2.0969372 2.8261743
000090 68 b1 4f 40 2b 44 ec 40 0a fc 9a 3f ba f2 46 40
       3.245203 7.3833213 1.2108166 3.1085649
0000a0 dd c3 41 40 dd 8e 7d 41 ad 36 82 41 ac f2 70 40
       3.0275795 15.847379 16.276697 3.7648115
0000b0 f4 9f ee 40 80 de d7 40 58 d2 99 40 61 dd ff 3f
       7.4570255 6.7459106 4.8069267 1.9989434
0000c0 d4 a7 a4 40 e9 29 1b 41 f8 76 57 41 de 5b 0a 41
       5.145487 9.697732 13.466545 8.6474285
0000d0 22 70 71 40 2d 3a 3f 40 df 86 0a 41 63 f6 2a 41
       3.772469 2.9879258 8.6579275 10.685153
0000e0 28 bc c6 40 14 24 0b 41 48 a2 26 40 85 34 de 40
       6.2104683 8.696308 2.6036549 6.943911
0000f0 51 b3 25 40 5a 4c 6e 40 1a 88 de 40 db a9 3b 41
       2.5890696 3.7234101 6.954114 11.728969
000100 1d 7b 3b 40 da d5 61 41 cf 62 6a 41 4d 73 6c 40
       2.9293892 14.11471 14.649123 3.6945374
000110 76 dc bb 41 64 06 53 41 29 49 5b 40 c4 e0 43 40
       23.482647 13.18906 3.4263403 3.0605936
000120 dd a2 8b 40 69 01 74 41 62 ba b4 40 4d 49 00 40
       4.363631 15.250344 5.647752 2.004474
000130 56 ab 20 41 97 fa 03 41 9b f6 0e 41 f9 72 8b 41
       10.04183 8.248679 8.935206 17.431139
000140 a4 33 9d 40 d5 98 ca 3f 67 6f 0e 41 9b 4c ea 40
       4.912554 1.5827891 8.902198 7.3218513
000150 71 09 18 40 07 97 1e 41 e3 4e 88 41 24 26 b1 41
       2.3755763 9.911872 17.038519 22.143623
000160 a5 ff bb 40 74 53 58 40 52 96 18 41 f4 3c 1d 41
       5.8749566 3.3800936 9.536699 9.827381
000170 24 10 bc 40 5b 8a 8b 3f 01 5a b1 40 5e e2 cf 40
       5.8769703 1.0901598 5.542237 6.4963827
000180 a8 bc 83 41 d6 d9 2b 40 4b ba 3b 41 a0 da 66 40
       16.467117 2.6851707 11.732982 3.6070938
000190 72 a2 8c 40 7e 3d a7 40 b2 51 12 40 0e ff a7 40
       4.3948298 5.2262564 2.2862363 5.2498846
0001a0 22 65 d0 40 6b fb c1 40 62 88 19 40 71 87 28 40
       6.5123453 6.0619407 2.3989491 2.6332667
0001b0 c8 e8 ce 40 37 ca 17 40 ae 4a 12 40 28 8e 8a 40
       6.4659157 2.3717172 2.285808 4.329853
0001c0 28 1a ca 40 95 b3 b8 40 31 dc 1c 41 cd d9 8e 40
       6.315693 5.7719216 9.803758 4.464087
0001d0 af dd fb 40 db 0d 6d 40 61 b9 15 41 c6 63 30 41
       7.870811 3.7039707 9.3577585 11.024359
0001e0 a1 35 b1 3f 1c 7b d2 3f 88 23 4f 40 ed 1e 8e 40
       1.3844491 1.644382 3.2365437 4.441275
0001f0 9c d1 0e 41 ba c1 6c 40 9e 20 2f 41 a2 2b 2a 40
       8.926174 3.6993241 10.945463 2.6589131
000200 e8 8b b3 40 92 31 36 41 ac aa 8a 40 57 f4 29 41
       5.6108284 11.387102 4.333334 10.622153
000210 33 f5 d9 40 7e f2 5c 41 55 07 04 41 66 31 4f 40
       6.8111815 13.809202 8.25179 3.23739
000220 65 09 86 40 5f af 98 3f 13 e3 3e 40 7d 23 42 41
       4.188647 1.1928519 2.9826095 12.133664
000230 ec 65 ad 40 a7 6d 37 41 74 74 b7 40 4b de 87 40
       5.4186916 11.464271 5.7329655 4.2458854
000240 5d dc 3c 40 1a 0d 1e 41 c5 d2 83 40 50 f7 c8 3f
       2.95095 9.878199 4.1194787 1.5700474
000250 ba c7 d3 40 dd fc 15 41 a4 94 de 41 7a a0 f0 40
       6.6181307 9.374234 27.822578 7.5195894
000260 8f 58 13 41 6a 99 07 41 7d 4f 60 41 0a 94 c7 40
       9.209121 8.474955 14.019406 6.236821
000270 94 40 28 41 c2 d8 f1 40 66 24 75 40 12 0b 2d 41
       10.515766 7.5577097 3.8303466 10.815203
000280 05 2a 21 41 0f dc 23 41 36 77 0b 41 c4 d2 0a 41
       10.072759 10.241225 8.716604 8.676456
000290 40 10 8c 40 05 36 9e 40 a1 2d 0b 41 b0 ab ed 40
       4.3769836 4.944094 8.69864 7.427208
0002a0 53 62 9c 40 ec 13 72 41 5d 3f b4 40 18 42 05 40
       4.8870025 15.129864 5.632735 2.082159
0002b0 91 36 08 41 d8 7b 06 41 75 55 4f 40 8b b4 0e 40
       8.513322 8.405235 3.239591 2.2297695
0002c0 e0 2f 92 41 87 2f 68 41 38 11 33 41 06 d1 e8 40
       18.273376 14.511603 11.191704 7.2755156
0002d0 54 da 48 41 5a 33 bd 40 79 44 20 40 74 67 22 41
       12.553303 5.9125185 2.5041792 10.150257
0002e0 84 59 d7 3f d4 25 68 40 2a 95 d4 40 a9 91 6d 41
       1.6824193 3.6273088 6.6432085 14.848062
0002f0 cb a4 34 41 ff 1e 5e 41 86 5c 3e 41 1e 3d 18 40
       11.290233 13.882567 11.897589 2.3787303
000300 68 28 36 41 60 2d 16 41 4c f2 0d 41 ff ac 31 41
       11.384865 9.386078 8.8716545 11.104735
000310 21 eb ff 40 c2 74 01 41 a2 af f9 40 b0 4a 2d 40
       7.9974523 8.091005 7.8026896 2.7076836

layers.3.weight f4 [100, 200]
000000 8d 68 fd bc 8d 3e a6 bb 3e 24 ea 3e a0 d7 9f be
       -0.030933643 -0.0050733746 0.45730776 -0.31219196
000010 6a 2d 04 bd 5d b1 29 3f f5 df 0e 3e dd 45 ca bd
       -0.032269873 0.6628626 0.1395262 -0.098766066
000020 14 33 78 bd 8b 94 34 be ed 3e 8a 3f cd f6 a8 be
       -0.060595587 -0.1763479 1.0800453 -0.33000794
000030 17 64 11 3e 15 a6 0a 3f 84 cd 1e bf aa 1f 3d bf
       0.14198337 0.5415967 -0.6203234 -0.7387644
000040 be c8 26 bf ba 77 5c 3f f3 53 7b bd 8c 7e 89 3e
       -0.6515006 0.8612019 -0.061359357 0.2685436
000050 16 f9 26 3f a0 ce 2c 3f 1c 6b 65 3f 21 89 dd 3d
       0.65223825 0.67502785 0.8961656 0.10817171
000060 63 de 8c 3f 1d f6 fe be 98 23 3b 3f 34 b5 8d be
       1.1005367 -0.49797145 0.73101187 -0.2767731
000070 06 3e 29 bf 78 50 1d 3e 9d 37 35 3f 24 67 79 bf
       -0.66110265 0.15362728 0.70787984 -0.97423005
000080 26 6e 7c bd eb 53 08 bf 64 bf d6 be 5d 3a 35 be
       -0.061628483 -0.5325305 -0.41942894 -0.17698045
000090 15 d5 3e 3f 75 06 04 bf 57 c0 3c be fe 8a 2f bf
       0.7454389 -0.5157235 -0.18432747 -0.6857146
0000a0 ce 29 06 bf 05 f3 12 3f 4d c7 48 bc e3 82 32 3f
       -0.5240754 0.5740207 -0.012254548 0.6973097
0000b0 73 ef e4 3e 71 3c 0d bf dc 93 1a 3e f1 a6 02 3f
       0.44713935 -0.5517035 0.15095466 0.5103598
0000c0 c2 58 48 bf 9b 83 bc 3c 5c a6 0a bf 9b 11 c6 be
       -0.78260434 0.023011973 -0.54160094 -0.38685307
0000d0 73 9f 0e bf 45 56 0d 3f b9 fb 9e bd ba 41 e6 be
       -0.5571205 0.5520976 -0.07762856 -0.4497202
0000e0 1d ea 16 bf 1a c4 06 3f b0 f7 df be 90 0f 7c 3f
       -0.5895098 0.5264298 -0.43743658 0.98461246
0000f0 b3 45 c5 3e 1f d6 0e be 75 31 50 3f 90 6b ce 3e
       0.3852974 -0.13948868 0.81325465 0.4031644
000100 d2 27 06 bf 68 e1 19 3f 9d 42 de 3e 3d 5c 5f bf
       -0.5240451 0.6010957 0.43410197 -0.8725012
000110 ee 00 b0 be 24 0b e4 3e 7b e9 3d 3f 48 f1 93 be
       -0.3437571 0.4453975 0.7418439 -0.2889502
000120 f6 79 65 3e dd 5a 3b 3f 63 4c bb bb fc b7 c1 3e
       0.22409806 0.7318552 -0.005715893 0.3783568
000130 d7 70 b4 bc 50 8e 93 be a1 5b 55 bf d7 a1 03 3f
       -0.022026462 -0.28819513 -0.8334294 0.51418823
000140 d8 d1 ce be 2f af 14 bf db e5 08 be 2b f8 9b be
       -0.40394473 -0.5807981 -0.13368933 -0.30462775
000150 0d d7 93 3e 1a e7 24 bf ed f6 46 3e 0f 3a 6d be
       0.28875008 -0.64415133 0.19430132 -0.23166679
000160 db 4f 85 3d cf 31 0d 3f f4 94 45 3f 74 a3 e2 3e
       0.06509372 0.55154127 0.7718041 0.4426533
000170 b4 03 1a bf 34 eb 1d bf d8 00 09 be d7 36 78 3e
       -0.601619 -0.61687016 -0.13379228 0.2423967
000180 b2 d1 49 be 6d 45 0f bf 15 c5 1f 3f a5 b0 c5 3e
       -0.19708899 -0.5596531 0.624101 0.38611332
000190 f7 36 1c bf dc 4a 21 bf 1e 53 66 3f c8 9f 8d 3e
       -0.6102137 -0.6300485 0.89970577 0.27660966
0001a0 b9 6c 1b bf 7a fc 27 3e a7 94 2b 3f 13 1f 3a 3f
       -0.6071277 0.16404906 0.670237 0.72703665
0001b0 9f 41 0f 3f c4 4b 3e 3f d2 c2 49 3f 16 2f b3 bd
       0.55959505 0.7433436 0.788129 -0.08749215
0001c0 d1 63 f2 3c 35 1b 45 3f 93 e2 a4 be 21 ac 0f be
       0.029588612 0.7699464 -0.32204112 -0.14030506
0001d0 5d 51 60 3e 0e a4 2a bf e4 b7 31 bf a8 e1 3b 3f
       0.21906038 -0.6665658 -0.6942122 0.733912
0001e0 19 d3 30 3f 43 24 6d 3e fb 2c 25 bf f3 00 24 3e
       0.6907211 0.23158364 -0.6452176 0.16015987
0001f0 7d ae 15 3f 6b d1 12 3f a1 eb 4d be 10 1b de 3e
       0.58469373 0.57350796 -0.20109417 0.43380022
000200 18 05 07 bf 81 38 42 be 74 be 4b be 62 b1 16 bf
       -0.5274215 -0.18966867 -0.19896871 -0.58864415
000210 e5 54 17 bf 20 34 c5 be a4 08 30 3f 64 fa 1e 3f
       -0.59113914 -0.3851633 0.68763185 0.62100816
000220 51 db b6 3e 0f dc 86 3e 5b 0e 4f 3f b2 fd 30 3f
       0.357142 0.26339766 0.8088128 0.6913711
000230 71 39 e8 3e ce 17 82 bf 1e 74 70 bf 45 f3 b4 3c
       0.45356324 -1.0163515 -0.9392718 0.022088656
000240 ff b0 97 be 56 6d 05 3f b1 9d 44 3e 4e e5 1c 3f
       -0.29627225 0.5211996 0.1920078 0.6128739
000250 21 50 f9 be 49 7c 76 3e 1e 38 c0 be eb a9 47 3f
       -0.48693946 0.24070849 -0.37542814 0.7799365
000260 c0 20 32 3e c2 51 ff be 65 b1 ac 3e 1b 4e 56 3f
       0.17395306 -0.49867064 0.3372909 0.8371293
000270 a1 29 27 bf c9 54 46 bd 45 c0 0d 3f 7d 72 c7 3e
       -0.65297896 -0.0484207 0.55371505 0.38954535
000280 d8 7d 2c bf 5b 2d 08 3f 0d 29 65 3e 9f f9 2e 3f
       -0.6737952 0.53194207 0.22378941 0.6834964
000290 09 59 90 3e 91 67 32 3f d8 be 3e 3f 40 20 2f bf
       0.28192928 0.6968928 0.74509954 -0.68408585
0002a0 6a c1 e5 3e d1 2b 0a 3f cb 81 5a be f2 65 94 3e
       0.44874126 0.5397311 -0.21338575 0.28984028
0002b0 50 65 15 3f f3 3c 3f 3e 43 45 20 3f 90 6d 39 bf
       0.58357716 0.18675594 0.62605685 -0.72432804
0002c0 df 99 1c 3e 38 7f 22 bf 5e 33 75 bf 7d 6a 2a 3f
       0.15293072 -0.6347537 -0.95781505 0.6656874
0002d0 14 34 04 bf 42 8a 20 bf e2 78 63 3e 57 06 44 bf
       -0.51641965 -0.62710965 0.22214082 -0.76572174
0002e0 11 1e 3e 3e 52 6a 16 bf 8d 47 ba bd 3f a8 08 3f
       0.18566157 -0.5875598 -0.090956785 0.53381723
0002f0 8a b5 66 be fd 10 3d 3e 6f e6 91 3e a1 95 57 bf
       -0.22530189 0.18463512 0.2849612 -0.8421269
000300 32 62 ee 3e 30 97 5f bf 71 1e 38 3f 00 61 3d bf
       0.46559292 -0.8734007 0.7192145 -0.73976135
000310 bb a0 ab bc 53 61 27 bf 90 59 07 bf e1 ff 1f 3f
       -0.020950666 -0.6538288 -0.52871037 0.62499815
000320 bf 7c e8 3e 2f 54 49 be c4 67 5e 3e 0e be 98 be
       0.45407674 -0.1966102 0.21719271 -0.298325
000330 d2 67 30 3f 37 cd dc be e1 df 8b 3e be 8e 68 be
       0.6890842 -0.43125317 0.27319244 -0.22710702
000340 f4 19 ff be 3c 72 65 be 92 2e a8 3e 08 3b d8 be
       -0.49824488 -0.22406858 0.3284803 -0.42232537
000350 b9 36 0f 3e 4f c7 40 be 46 f5 25 bf 4e 4a f9 be
       0.13985719 -0.1882603 -0.6482738 -0.48689502
000360 03 92 2c bf d8 fc 17 3f 8c 41 87 be e2 67 b3 3e
       -0.67410296 0.59370184 -0.26417196 0.35040194
000370 1b 75 20 be 08 55 36 3f 3d 2c 82 3f 86 ad 02 bf
       -0.15669672 0.712235 1.016975 -0.51046026
000380 55 98 36 be 06 de 81 be 9a eb 39 3f f9 49 6f be
       -0.17831548 -0.25364703 0.72625124 -0.23368062
000390 f4 e8 46 bd fb 5f d8 3e 93 b6 2f 3f a4 e3 d7 3e
       -0.048562005 0.42260727 0.6863796 0.42165864
0003a0 2f 46 90 be a7 7f b8 be c3 ef ab 3e bd e5 ab bc
       -0.28178546 -0.3603489 0.3358136 -0.020983571
0003b0 26 f7 69 3f 6e 9e 33 bf 44 a6 57 bd ea ba 4f bf
       0.91392744 -0.7016362 -0.052648798 -0.81144583
0003c0 90 cf cf be b5 a8 65 bf b9 4b 6e be c6 0b 2f 3f
       -0.40588045 -0.8971055 -0.23271073 0.6837734
0003d0 93 e1 f7 3e ee 43 07 bf b5 85 dc 3d 1e 12 f4 3e
       0.48414287 -0.5283803 0.1076769 0.47670072
0003e0 c5 af a8 be a8 6b 2d 3f 30 8b e8 be f2 64 9a be
       -0.32946602 0.67742395 -0.45418692 -0.3015514
0003f0 a1 8a 09 bf 81 0c 24 3f d1 0c cd 3e 17 7a c7 be
       -0.53727156 0.6408158 0.4004884 -0.38960335
